…
Executing test case with config at ./tests/densenet/config_rwth.conf
Model: "model"
__________________________________________________________________________________________________
Layer (type)                    Output Shape         Param #     Connected to                     
==================================================================================================
data (InputLayer)               [(None, 132, 92, 3)] 0                                            
__________________________________________________________________________________________________
conv1_zeropadding (ZeroPadding2 (None, 138, 98, 3)   0           data[0][0]                       
__________________________________________________________________________________________________
conv1 (Conv2D)                  (None, 66, 46, 64)   9408        conv1_zeropadding[0][0]          
__________________________________________________________________________________________________
conv1_bn (BatchNormalization)   (None, 66, 46, 64)   256         conv1[0][0]                      
__________________________________________________________________________________________________
relu1 (Activation)              (None, 66, 46, 64)   0           conv1_bn[0][0]                   
__________________________________________________________________________________________________
pool1_zeropadding (ZeroPadding2 (None, 68, 48, 64)   0           relu1[0][0]                      
__________________________________________________________________________________________________
pool1 (MaxPooling2D)            (None, 33, 23, 64)   0           pool1_zeropadding[0][0]          
__________________________________________________________________________________________________
conv2_1_x1_bn (BatchNormalizati (None, 33, 23, 64)   256         pool1[0][0]                      
__________________________________________________________________________________________________
relu2_1_x1 (Activation)         (None, 33, 23, 64)   0           conv2_1_x1_bn[0][0]              
__________________________________________________________________________________________________
conv2_1_x1 (Conv2D)             (None, 33, 23, 256)  16384       relu2_1_x1[0][0]                 
__________________________________________________________________________________________________
conv2_1_x2_bn (BatchNormalizati (None, 33, 23, 256)  1024        conv2_1_x1[0][0]                 
__________________________________________________________________________________________________
relu2_1_x2 (Activation)         (None, 33, 23, 256)  0           conv2_1_x2_bn[0][0]              
__________________________________________________________________________________________________
conv2_1_x2_zeropadding (ZeroPad (None, 35, 25, 256)  0           relu2_1_x2[0][0]                 
__________________________________________________________________________________________________
conv2_1_x2 (Conv2D)             (None, 33, 23, 64)   147456      conv2_1_x2_zeropadding[0][0]     
__________________________________________________________________________________________________
tf_op_layer_concat (TensorFlowO [(None, 33, 23, 128) 0           pool1[0][0]                      
                                                                 conv2_1_x2[0][0]                 
__________________________________________________________________________________________________
conv2_2_x1_bn (BatchNormalizati (None, 33, 23, 128)  512         tf_op_layer_concat[0][0]         
__________________________________________________________________________________________________
relu2_2_x1 (Activation)         (None, 33, 23, 128)  0           conv2_2_x1_bn[0][0]              
__________________________________________________________________________________________________
conv2_2_x1 (Conv2D)             (None, 33, 23, 256)  32768       relu2_2_x1[0][0]                 
__________________________________________________________________________________________________
conv2_2_x2_bn (BatchNormalizati (None, 33, 23, 256)  1024        conv2_2_x1[0][0]                 
__________________________________________________________________________________________________
relu2_2_x2 (Activation)         (None, 33, 23, 256)  0           conv2_2_x2_bn[0][0]              
__________________________________________________________________________________________________
conv2_2_x2_zeropadding (ZeroPad (None, 35, 25, 256)  0           relu2_2_x2[0][0]                 
__________________________________________________________________________________________________
conv2_2_x2 (Conv2D)             (None, 33, 23, 64)   147456      conv2_2_x2_zeropadding[0][0]     
__________________________________________________________________________________________________
tf_op_layer_concat_1 (TensorFlo [(None, 33, 23, 192) 0           tf_op_layer_concat[0][0]         
                                                                 conv2_2_x2[0][0]                 
__________________________________________________________________________________________________
conv2_3_x1_bn (BatchNormalizati (None, 33, 23, 192)  768         tf_op_layer_concat_1[0][0]       
__________________________________________________________________________________________________
relu2_3_x1 (Activation)         (None, 33, 23, 192)  0           conv2_3_x1_bn[0][0]              
__________________________________________________________________________________________________
conv2_3_x1 (Conv2D)             (None, 33, 23, 256)  49152       relu2_3_x1[0][0]                 
__________________________________________________________________________________________________
conv2_3_x2_bn (BatchNormalizati (None, 33, 23, 256)  1024        conv2_3_x1[0][0]                 
__________________________________________________________________________________________________
relu2_3_x2 (Activation)         (None, 33, 23, 256)  0           conv2_3_x2_bn[0][0]              
__________________________________________________________________________________________________
conv2_3_x2_zeropadding (ZeroPad (None, 35, 25, 256)  0           relu2_3_x2[0][0]                 
__________________________________________________________________________________________________
conv2_3_x2 (Conv2D)             (None, 33, 23, 64)   147456      conv2_3_x2_zeropadding[0][0]     
__________________________________________________________________________________________________
tf_op_layer_concat_2 (TensorFlo [(None, 33, 23, 256) 0           tf_op_layer_concat_1[0][0]       
                                                                 conv2_3_x2[0][0]                 
__________________________________________________________________________________________________
conv2_4_x1_bn (BatchNormalizati (None, 33, 23, 256)  1024        tf_op_layer_concat_2[0][0]       
__________________________________________________________________________________________________
relu2_4_x1 (Activation)         (None, 33, 23, 256)  0           conv2_4_x1_bn[0][0]              
__________________________________________________________________________________________________
conv2_4_x1 (Conv2D)             (None, 33, 23, 256)  65536       relu2_4_x1[0][0]                 
__________________________________________________________________________________________________
conv2_4_x2_bn (BatchNormalizati (None, 33, 23, 256)  1024        conv2_4_x1[0][0]                 
__________________________________________________________________________________________________
relu2_4_x2 (Activation)         (None, 33, 23, 256)  0           conv2_4_x2_bn[0][0]              
__________________________________________________________________________________________________
conv2_4_x2_zeropadding (ZeroPad (None, 35, 25, 256)  0           relu2_4_x2[0][0]                 
__________________________________________________________________________________________________
conv2_4_x2 (Conv2D)             (None, 33, 23, 64)   147456      conv2_4_x2_zeropadding[0][0]     
__________________________________________________________________________________________________
tf_op_layer_concat_3 (TensorFlo [(None, 33, 23, 320) 0           tf_op_layer_concat_2[0][0]       
                                                                 conv2_4_x2[0][0]                 
__________________________________________________________________________________________________
conv2_5_x1_bn (BatchNormalizati (None, 33, 23, 320)  1280        tf_op_layer_concat_3[0][0]       
__________________________________________________________________________________________________
relu2_5_x1 (Activation)         (None, 33, 23, 320)  0           conv2_5_x1_bn[0][0]              
__________________________________________________________________________________________________
conv2_5_x1 (Conv2D)             (None, 33, 23, 256)  81920       relu2_5_x1[0][0]                 
__________________________________________________________________________________________________
conv2_5_x2_bn (BatchNormalizati (None, 33, 23, 256)  1024        conv2_5_x1[0][0]                 
__________________________________________________________________________________________________
relu2_5_x2 (Activation)         (None, 33, 23, 256)  0           conv2_5_x2_bn[0][0]              
__________________________________________________________________________________________________
conv2_5_x2_zeropadding (ZeroPad (None, 35, 25, 256)  0           relu2_5_x2[0][0]                 
__________________________________________________________________________________________________
conv2_5_x2 (Conv2D)             (None, 33, 23, 64)   147456      conv2_5_x2_zeropadding[0][0]     
__________________________________________________________________________________________________
tf_op_layer_concat_4 (TensorFlo [(None, 33, 23, 384) 0           tf_op_layer_concat_3[0][0]       
                                                                 conv2_5_x2[0][0]                 
__________________________________________________________________________________________________
conv2_6_x1_bn (BatchNormalizati (None, 33, 23, 384)  1536        tf_op_layer_concat_4[0][0]       
__________________________________________________________________________________________________
relu2_6_x1 (Activation)         (None, 33, 23, 384)  0           conv2_6_x1_bn[0][0]              
__________________________________________________________________________________________________
conv2_6_x1 (Conv2D)             (None, 33, 23, 256)  98304       relu2_6_x1[0][0]                 
__________________________________________________________________________________________________
conv2_6_x2_bn (BatchNormalizati (None, 33, 23, 256)  1024        conv2_6_x1[0][0]                 
__________________________________________________________________________________________________
relu2_6_x2 (Activation)         (None, 33, 23, 256)  0           conv2_6_x2_bn[0][0]              
__________________________________________________________________________________________________
conv2_6_x2_zeropadding (ZeroPad (None, 35, 25, 256)  0           relu2_6_x2[0][0]                 
__________________________________________________________________________________________________
conv2_6_x2 (Conv2D)             (None, 33, 23, 64)   147456      conv2_6_x2_zeropadding[0][0]     
__________________________________________________________________________________________________
tf_op_layer_concat_5 (TensorFlo [(None, 33, 23, 448) 0           tf_op_layer_concat_4[0][0]       
                                                                 conv2_6_x2[0][0]                 
__________________________________________________________________________________________________
global_average_pooling_2d_se2_d (None, 448)          0           tf_op_layer_concat_5[0][0]       
__________________________________________________________________________________________________
dense_relu_se2_dense (Dense)    (None, 28)           12572       global_average_pooling_2d_se2_den
__________________________________________________________________________________________________
relu_se2_dense (Activation)     (None, 28)           0           dense_relu_se2_dense[0][0]       
__________________________________________________________________________________________________
dense_sigmoid_se2_dense (Dense) (None, 448)          12992       relu_se2_dense[0][0]             
__________________________________________________________________________________________________
sigmoid_se2_dense (Activation)  (None, 448)          0           dense_sigmoid_se2_dense[0][0]    
__________________________________________________________________________________________________
tf_op_layer_ExpandDims (TensorF [(None, 1, 448)]     0           sigmoid_se2_dense[0][0]          
__________________________________________________________________________________________________
tf_op_layer_ExpandDims_1 (Tenso [(None, 1, 1, 448)]  0           tf_op_layer_ExpandDims[0][0]     
__________________________________________________________________________________________________
tf_op_layer_mul (TensorFlowOpLa [(None, 33, 23, 448) 0           tf_op_layer_concat_5[0][0]       
                                                                 tf_op_layer_ExpandDims_1[0][0]   
__________________________________________________________________________________________________
conv2_blk_bn (BatchNormalizatio (None, 33, 23, 448)  1792        tf_op_layer_mul[0][0]            
__________________________________________________________________________________________________
relu2_blk (Activation)          (None, 33, 23, 448)  0           conv2_blk_bn[0][0]               
__________________________________________________________________________________________________
conv2_blk (Conv2D)              (None, 33, 23, 224)  100352      relu2_blk[0][0]                  
__________________________________________________________________________________________________
pool2 (AveragePooling2D)        (None, 16, 11, 224)  0           conv2_blk[0][0]                  
__________________________________________________________________________________________________
global_average_pooling_2d_se2_t (None, 224)          0           pool2[0][0]                      
__________________________________________________________________________________________________
dense_relu_se2_transition (Dens (None, 14)           3150        global_average_pooling_2d_se2_tra
__________________________________________________________________________________________________
relu_se2_transition (Activation (None, 14)           0           dense_relu_se2_transition[0][0]  
__________________________________________________________________________________________________
dense_sigmoid_se2_transition (D (None, 224)          3360        relu_se2_transition[0][0]        
__________________________________________________________________________________________________
sigmoid_se2_transition (Activat (None, 224)          0           dense_sigmoid_se2_transition[0][0
__________________________________________________________________________________________________
tf_op_layer_ExpandDims_2 (Tenso [(None, 1, 224)]     0           sigmoid_se2_transition[0][0]     
__________________________________________________________________________________________________
tf_op_layer_ExpandDims_3 (Tenso [(None, 1, 1, 224)]  0           tf_op_layer_ExpandDims_2[0][0]   
__________________________________________________________________________________________________
tf_op_layer_mul_1 (TensorFlowOp [(None, 16, 11, 224) 0           pool2[0][0]                      
                                                                 tf_op_layer_ExpandDims_3[0][0]   
__________________________________________________________________________________________________
conv3_1_x1_bn (BatchNormalizati (None, 16, 11, 224)  896         tf_op_layer_mul_1[0][0]          
__________________________________________________________________________________________________
relu3_1_x1 (Activation)         (None, 16, 11, 224)  0           conv3_1_x1_bn[0][0]              
__________________________________________________________________________________________________
conv3_1_x1 (Conv2D)             (None, 16, 11, 256)  57344       relu3_1_x1[0][0]                 
__________________________________________________________________________________________________
conv3_1_x2_bn (BatchNormalizati (None, 16, 11, 256)  1024        conv3_1_x1[0][0]                 
__________________________________________________________________________________________________
relu3_1_x2 (Activation)         (None, 16, 11, 256)  0           conv3_1_x2_bn[0][0]              
__________________________________________________________________________________________________
conv3_1_x2_zeropadding (ZeroPad (None, 18, 13, 256)  0           relu3_1_x2[0][0]                 
__________________________________________________________________________________________________
conv3_1_x2 (Conv2D)             (None, 16, 11, 64)   147456      conv3_1_x2_zeropadding[0][0]     
__________________________________________________________________________________________________
tf_op_layer_concat_6 (TensorFlo [(None, 16, 11, 288) 0           tf_op_layer_mul_1[0][0]          
                                                                 conv3_1_x2[0][0]                 
__________________________________________________________________________________________________
conv3_2_x1_bn (BatchNormalizati (None, 16, 11, 288)  1152        tf_op_layer_concat_6[0][0]       
__________________________________________________________________________________________________
relu3_2_x1 (Activation)         (None, 16, 11, 288)  0           conv3_2_x1_bn[0][0]              
__________________________________________________________________________________________________
conv3_2_x1 (Conv2D)             (None, 16, 11, 256)  73728       relu3_2_x1[0][0]                 
__________________________________________________________________________________________________
conv3_2_x2_bn (BatchNormalizati (None, 16, 11, 256)  1024        conv3_2_x1[0][0]                 
__________________________________________________________________________________________________
relu3_2_x2 (Activation)         (None, 16, 11, 256)  0           conv3_2_x2_bn[0][0]              
__________________________________________________________________________________________________
conv3_2_x2_zeropadding (ZeroPad (None, 18, 13, 256)  0           relu3_2_x2[0][0]                 
__________________________________________________________________________________________________
conv3_2_x2 (Conv2D)             (None, 16, 11, 64)   147456      conv3_2_x2_zeropadding[0][0]     
__________________________________________________________________________________________________
tf_op_layer_concat_7 (TensorFlo [(None, 16, 11, 352) 0           tf_op_layer_concat_6[0][0]       
                                                                 conv3_2_x2[0][0]                 
__________________________________________________________________________________________________
conv3_3_x1_bn (BatchNormalizati (None, 16, 11, 352)  1408        tf_op_layer_concat_7[0][0]       
__________________________________________________________________________________________________
relu3_3_x1 (Activation)         (None, 16, 11, 352)  0           conv3_3_x1_bn[0][0]              
__________________________________________________________________________________________________
conv3_3_x1 (Conv2D)             (None, 16, 11, 256)  90112       relu3_3_x1[0][0]                 
__________________________________________________________________________________________________
conv3_3_x2_bn (BatchNormalizati (None, 16, 11, 256)  1024        conv3_3_x1[0][0]                 
__________________________________________________________________________________________________
relu3_3_x2 (Activation)         (None, 16, 11, 256)  0           conv3_3_x2_bn[0][0]              
__________________________________________________________________________________________________
conv3_3_x2_zeropadding (ZeroPad (None, 18, 13, 256)  0           relu3_3_x2[0][0]                 
__________________________________________________________________________________________________
conv3_3_x2 (Conv2D)             (None, 16, 11, 64)   147456      conv3_3_x2_zeropadding[0][0]     
__________________________________________________________________________________________________
tf_op_layer_concat_8 (TensorFlo [(None, 16, 11, 416) 0           tf_op_layer_concat_7[0][0]       
                                                                 conv3_3_x2[0][0]                 
__________________________________________________________________________________________________
conv3_4_x1_bn (BatchNormalizati (None, 16, 11, 416)  1664        tf_op_layer_concat_8[0][0]       
__________________________________________________________________________________________________
relu3_4_x1 (Activation)         (None, 16, 11, 416)  0           conv3_4_x1_bn[0][0]              
__________________________________________________________________________________________________
conv3_4_x1 (Conv2D)             (None, 16, 11, 256)  106496      relu3_4_x1[0][0]                 
__________________________________________________________________________________________________
conv3_4_x2_bn (BatchNormalizati (None, 16, 11, 256)  1024        conv3_4_x1[0][0]                 
__________________________________________________________________________________________________
relu3_4_x2 (Activation)         (None, 16, 11, 256)  0           conv3_4_x2_bn[0][0]              
__________________________________________________________________________________________________
conv3_4_x2_zeropadding (ZeroPad (None, 18, 13, 256)  0           relu3_4_x2[0][0]                 
__________________________________________________________________________________________________
conv3_4_x2 (Conv2D)             (None, 16, 11, 64)   147456      conv3_4_x2_zeropadding[0][0]     
__________________________________________________________________________________________________
tf_op_layer_concat_9 (TensorFlo [(None, 16, 11, 480) 0           tf_op_layer_concat_8[0][0]       
                                                                 conv3_4_x2[0][0]                 
__________________________________________________________________________________________________
conv3_5_x1_bn (BatchNormalizati (None, 16, 11, 480)  1920        tf_op_layer_concat_9[0][0]       
__________________________________________________________________________________________________
relu3_5_x1 (Activation)         (None, 16, 11, 480)  0           conv3_5_x1_bn[0][0]              
__________________________________________________________________________________________________
conv3_5_x1 (Conv2D)             (None, 16, 11, 256)  122880      relu3_5_x1[0][0]                 
__________________________________________________________________________________________________
conv3_5_x2_bn (BatchNormalizati (None, 16, 11, 256)  1024        conv3_5_x1[0][0]                 
__________________________________________________________________________________________________
relu3_5_x2 (Activation)         (None, 16, 11, 256)  0           conv3_5_x2_bn[0][0]              
__________________________________________________________________________________________________
conv3_5_x2_zeropadding (ZeroPad (None, 18, 13, 256)  0           relu3_5_x2[0][0]                 
__________________________________________________________________________________________________
conv3_5_x2 (Conv2D)             (None, 16, 11, 64)   147456      conv3_5_x2_zeropadding[0][0]     
__________________________________________________________________________________________________
tf_op_layer_concat_10 (TensorFl [(None, 16, 11, 544) 0           tf_op_layer_concat_9[0][0]       
                                                                 conv3_5_x2[0][0]                 
__________________________________________________________________________________________________
conv3_6_x1_bn (BatchNormalizati (None, 16, 11, 544)  2176        tf_op_layer_concat_10[0][0]      
__________________________________________________________________________________________________
relu3_6_x1 (Activation)         (None, 16, 11, 544)  0           conv3_6_x1_bn[0][0]              
__________________________________________________________________________________________________
conv3_6_x1 (Conv2D)             (None, 16, 11, 256)  139264      relu3_6_x1[0][0]                 
__________________________________________________________________________________________________
conv3_6_x2_bn (BatchNormalizati (None, 16, 11, 256)  1024        conv3_6_x1[0][0]                 
__________________________________________________________________________________________________
relu3_6_x2 (Activation)         (None, 16, 11, 256)  0           conv3_6_x2_bn[0][0]              
__________________________________________________________________________________________________
conv3_6_x2_zeropadding (ZeroPad (None, 18, 13, 256)  0           relu3_6_x2[0][0]                 
__________________________________________________________________________________________________
conv3_6_x2 (Conv2D)             (None, 16, 11, 64)   147456      conv3_6_x2_zeropadding[0][0]     
__________________________________________________________________________________________________
tf_op_layer_concat_11 (TensorFl [(None, 16, 11, 608) 0           tf_op_layer_concat_10[0][0]      
                                                                 conv3_6_x2[0][0]                 
__________________________________________________________________________________________________
conv3_7_x1_bn (BatchNormalizati (None, 16, 11, 608)  2432        tf_op_layer_concat_11[0][0]      
__________________________________________________________________________________________________
relu3_7_x1 (Activation)         (None, 16, 11, 608)  0           conv3_7_x1_bn[0][0]              
__________________________________________________________________________________________________
conv3_7_x1 (Conv2D)             (None, 16, 11, 256)  155648      relu3_7_x1[0][0]                 
__________________________________________________________________________________________________
conv3_7_x2_bn (BatchNormalizati (None, 16, 11, 256)  1024        conv3_7_x1[0][0]                 
__________________________________________________________________________________________________
relu3_7_x2 (Activation)         (None, 16, 11, 256)  0           conv3_7_x2_bn[0][0]              
__________________________________________________________________________________________________
conv3_7_x2_zeropadding (ZeroPad (None, 18, 13, 256)  0           relu3_7_x2[0][0]                 
__________________________________________________________________________________________________
conv3_7_x2 (Conv2D)             (None, 16, 11, 64)   147456      conv3_7_x2_zeropadding[0][0]     
__________________________________________________________________________________________________
tf_op_layer_concat_12 (TensorFl [(None, 16, 11, 672) 0           tf_op_layer_concat_11[0][0]      
                                                                 conv3_7_x2[0][0]                 
__________________________________________________________________________________________________
conv3_8_x1_bn (BatchNormalizati (None, 16, 11, 672)  2688        tf_op_layer_concat_12[0][0]      
__________________________________________________________________________________________________
relu3_8_x1 (Activation)         (None, 16, 11, 672)  0           conv3_8_x1_bn[0][0]              
__________________________________________________________________________________________________
conv3_8_x1 (Conv2D)             (None, 16, 11, 256)  172032      relu3_8_x1[0][0]                 
__________________________________________________________________________________________________
conv3_8_x2_bn (BatchNormalizati (None, 16, 11, 256)  1024        conv3_8_x1[0][0]                 
__________________________________________________________________________________________________
relu3_8_x2 (Activation)         (None, 16, 11, 256)  0           conv3_8_x2_bn[0][0]              
__________________________________________________________________________________________________
conv3_8_x2_zeropadding (ZeroPad (None, 18, 13, 256)  0           relu3_8_x2[0][0]                 
__________________________________________________________________________________________________
conv3_8_x2 (Conv2D)             (None, 16, 11, 64)   147456      conv3_8_x2_zeropadding[0][0]     
__________________________________________________________________________________________________
tf_op_layer_concat_13 (TensorFl [(None, 16, 11, 736) 0           tf_op_layer_concat_12[0][0]      
                                                                 conv3_8_x2[0][0]                 
__________________________________________________________________________________________________
conv3_9_x1_bn (BatchNormalizati (None, 16, 11, 736)  2944        tf_op_layer_concat_13[0][0]      
__________________________________________________________________________________________________
relu3_9_x1 (Activation)         (None, 16, 11, 736)  0           conv3_9_x1_bn[0][0]              
__________________________________________________________________________________________________
conv3_9_x1 (Conv2D)             (None, 16, 11, 256)  188416      relu3_9_x1[0][0]                 
__________________________________________________________________________________________________
conv3_9_x2_bn (BatchNormalizati (None, 16, 11, 256)  1024        conv3_9_x1[0][0]                 
__________________________________________________________________________________________________
relu3_9_x2 (Activation)         (None, 16, 11, 256)  0           conv3_9_x2_bn[0][0]              
__________________________________________________________________________________________________
conv3_9_x2_zeropadding (ZeroPad (None, 18, 13, 256)  0           relu3_9_x2[0][0]                 
__________________________________________________________________________________________________
conv3_9_x2 (Conv2D)             (None, 16, 11, 64)   147456      conv3_9_x2_zeropadding[0][0]     
__________________________________________________________________________________________________
tf_op_layer_concat_14 (TensorFl [(None, 16, 11, 800) 0           tf_op_layer_concat_13[0][0]      
                                                                 conv3_9_x2[0][0]                 
__________________________________________________________________________________________________
conv3_10_x1_bn (BatchNormalizat (None, 16, 11, 800)  3200        tf_op_layer_concat_14[0][0]      
__________________________________________________________________________________________________
relu3_10_x1 (Activation)        (None, 16, 11, 800)  0           conv3_10_x1_bn[0][0]             
__________________________________________________________________________________________________
conv3_10_x1 (Conv2D)            (None, 16, 11, 256)  204800      relu3_10_x1[0][0]                
__________________________________________________________________________________________________
conv3_10_x2_bn (BatchNormalizat (None, 16, 11, 256)  1024        conv3_10_x1[0][0]                
__________________________________________________________________________________________________
relu3_10_x2 (Activation)        (None, 16, 11, 256)  0           conv3_10_x2_bn[0][0]             
__________________________________________________________________________________________________
conv3_10_x2_zeropadding (ZeroPa (None, 18, 13, 256)  0           relu3_10_x2[0][0]                
__________________________________________________________________________________________________
conv3_10_x2 (Conv2D)            (None, 16, 11, 64)   147456      conv3_10_x2_zeropadding[0][0]    
__________________________________________________________________________________________________
tf_op_layer_concat_15 (TensorFl [(None, 16, 11, 864) 0           tf_op_layer_concat_14[0][0]      
                                                                 conv3_10_x2[0][0]                
__________________________________________________________________________________________________
conv3_11_x1_bn (BatchNormalizat (None, 16, 11, 864)  3456        tf_op_layer_concat_15[0][0]      
__________________________________________________________________________________________________
relu3_11_x1 (Activation)        (None, 16, 11, 864)  0           conv3_11_x1_bn[0][0]             
__________________________________________________________________________________________________
conv3_11_x1 (Conv2D)            (None, 16, 11, 256)  221184      relu3_11_x1[0][0]                
__________________________________________________________________________________________________
conv3_11_x2_bn (BatchNormalizat (None, 16, 11, 256)  1024        conv3_11_x1[0][0]                
__________________________________________________________________________________________________
relu3_11_x2 (Activation)        (None, 16, 11, 256)  0           conv3_11_x2_bn[0][0]             
__________________________________________________________________________________________________
conv3_11_x2_zeropadding (ZeroPa (None, 18, 13, 256)  0           relu3_11_x2[0][0]                
__________________________________________________________________________________________________
conv3_11_x2 (Conv2D)            (None, 16, 11, 64)   147456      conv3_11_x2_zeropadding[0][0]    
__________________________________________________________________________________________________
tf_op_layer_concat_16 (TensorFl [(None, 16, 11, 928) 0           tf_op_layer_concat_15[0][0]      
                                                                 conv3_11_x2[0][0]                
__________________________________________________________________________________________________
conv3_12_x1_bn (BatchNormalizat (None, 16, 11, 928)  3712        tf_op_layer_concat_16[0][0]      
__________________________________________________________________________________________________
relu3_12_x1 (Activation)        (None, 16, 11, 928)  0           conv3_12_x1_bn[0][0]             
__________________________________________________________________________________________________
conv3_12_x1 (Conv2D)            (None, 16, 11, 256)  237568      relu3_12_x1[0][0]                
__________________________________________________________________________________________________
conv3_12_x2_bn (BatchNormalizat (None, 16, 11, 256)  1024        conv3_12_x1[0][0]                
__________________________________________________________________________________________________
relu3_12_x2 (Activation)        (None, 16, 11, 256)  0           conv3_12_x2_bn[0][0]             
__________________________________________________________________________________________________
conv3_12_x2_zeropadding (ZeroPa (None, 18, 13, 256)  0           relu3_12_x2[0][0]                
__________________________________________________________________________________________________
conv3_12_x2 (Conv2D)            (None, 16, 11, 64)   147456      conv3_12_x2_zeropadding[0][0]    
__________________________________________________________________________________________________
tf_op_layer_concat_17 (TensorFl [(None, 16, 11, 992) 0           tf_op_layer_concat_16[0][0]      
                                                                 conv3_12_x2[0][0]                
__________________________________________________________________________________________________
global_average_pooling_2d_se3_d (None, 992)          0           tf_op_layer_concat_17[0][0]      
__________________________________________________________________________________________________
dense_relu_se3_dense (Dense)    (None, 62)           61566       global_average_pooling_2d_se3_den
__________________________________________________________________________________________________
relu_se3_dense (Activation)     (None, 62)           0           dense_relu_se3_dense[0][0]       
__________________________________________________________________________________________________
dense_sigmoid_se3_dense (Dense) (None, 992)          62496       relu_se3_dense[0][0]             
__________________________________________________________________________________________________
sigmoid_se3_dense (Activation)  (None, 992)          0           dense_sigmoid_se3_dense[0][0]    
__________________________________________________________________________________________________
tf_op_layer_ExpandDims_4 (Tenso [(None, 1, 992)]     0           sigmoid_se3_dense[0][0]          
__________________________________________________________________________________________________
tf_op_layer_ExpandDims_5 (Tenso [(None, 1, 1, 992)]  0           tf_op_layer_ExpandDims_4[0][0]   
__________________________________________________________________________________________________
tf_op_layer_mul_2 (TensorFlowOp [(None, 16, 11, 992) 0           tf_op_layer_concat_17[0][0]      
                                                                 tf_op_layer_ExpandDims_5[0][0]   
__________________________________________________________________________________________________
conv_final_blk_bn (BatchNormali (None, 16, 11, 992)  3968        tf_op_layer_mul_2[0][0]          
__________________________________________________________________________________________________
relu_final_blk (Activation)     (None, 16, 11, 992)  0           conv_final_blk_bn[0][0]          
__________________________________________________________________________________________________
pool_final (GlobalAveragePoolin (None, 992)          0           relu_final_blk[0][0]             
__________________________________________________________________________________________________
fc6 (Dense)                     (None, 20)           19860       pool_final[0][0]                 
__________________________________________________________________________________________________
prob (Activation)               (None, 20)           0           fc6[0][0]                        
==================================================================================================
Total params: 5,110,972
Trainable params: 5,082,236
Non-trainable params: 28,736
__________________________________________________________________________________________________
Model: "model"
__________________________________________________________________________________________________
Layer (type)                    Output Shape         Param #     Connected to                     
==================================================================================================
data (InputLayer)               [(None, 132, 92, 3)] 0                                            
__________________________________________________________________________________________________
conv1_zeropadding (ZeroPadding2 (None, 138, 98, 3)   0           data[0][0]                       
__________________________________________________________________________________________________
conv1 (Conv2D)                  (None, 66, 46, 64)   9408        conv1_zeropadding[0][0]          
__________________________________________________________________________________________________
conv1_bn (BatchNormalization)   (None, 66, 46, 64)   256         conv1[0][0]                      
__________________________________________________________________________________________________
relu1 (Activation)              (None, 66, 46, 64)   0           conv1_bn[0][0]                   
__________________________________________________________________________________________________
pool1_zeropadding (ZeroPadding2 (None, 68, 48, 64)   0           relu1[0][0]                      
__________________________________________________________________________________________________
pool1 (MaxPooling2D)            (None, 33, 23, 64)   0           pool1_zeropadding[0][0]          
__________________________________________________________________________________________________
conv2_1_x1_bn (BatchNormalizati (None, 33, 23, 64)   256         pool1[0][0]                      
__________________________________________________________________________________________________
relu2_1_x1 (Activation)         (None, 33, 23, 64)   0           conv2_1_x1_bn[0][0]              
__________________________________________________________________________________________________
conv2_1_x1 (Conv2D)             (None, 33, 23, 256)  16384       relu2_1_x1[0][0]                 
__________________________________________________________________________________________________
conv2_1_x2_bn (BatchNormalizati (None, 33, 23, 256)  1024        conv2_1_x1[0][0]                 
__________________________________________________________________________________________________
relu2_1_x2 (Activation)         (None, 33, 23, 256)  0           conv2_1_x2_bn[0][0]              
__________________________________________________________________________________________________
conv2_1_x2_zeropadding (ZeroPad (None, 35, 25, 256)  0           relu2_1_x2[0][0]                 
__________________________________________________________________________________________________
conv2_1_x2 (Conv2D)             (None, 33, 23, 64)   147456      conv2_1_x2_zeropadding[0][0]     
__________________________________________________________________________________________________
tf_op_layer_concat (TensorFlowO [(None, 33, 23, 128) 0           pool1[0][0]                      
                                                                 conv2_1_x2[0][0]                 
__________________________________________________________________________________________________
conv2_2_x1_bn (BatchNormalizati (None, 33, 23, 128)  512         tf_op_layer_concat[0][0]         
__________________________________________________________________________________________________
relu2_2_x1 (Activation)         (None, 33, 23, 128)  0           conv2_2_x1_bn[0][0]              
__________________________________________________________________________________________________
conv2_2_x1 (Conv2D)             (None, 33, 23, 256)  32768       relu2_2_x1[0][0]                 
__________________________________________________________________________________________________
conv2_2_x2_bn (BatchNormalizati (None, 33, 23, 256)  1024        conv2_2_x1[0][0]                 
__________________________________________________________________________________________________
relu2_2_x2 (Activation)         (None, 33, 23, 256)  0           conv2_2_x2_bn[0][0]              
__________________________________________________________________________________________________
conv2_2_x2_zeropadding (ZeroPad (None, 35, 25, 256)  0           relu2_2_x2[0][0]                 
__________________________________________________________________________________________________
conv2_2_x2 (Conv2D)             (None, 33, 23, 64)   147456      conv2_2_x2_zeropadding[0][0]     
__________________________________________________________________________________________________
tf_op_layer_concat_1 (TensorFlo [(None, 33, 23, 192) 0           tf_op_layer_concat[0][0]         
                                                                 conv2_2_x2[0][0]                 
__________________________________________________________________________________________________
conv2_3_x1_bn (BatchNormalizati (None, 33, 23, 192)  768         tf_op_layer_concat_1[0][0]       
__________________________________________________________________________________________________
relu2_3_x1 (Activation)         (None, 33, 23, 192)  0           conv2_3_x1_bn[0][0]              
__________________________________________________________________________________________________
conv2_3_x1 (Conv2D)             (None, 33, 23, 256)  49152       relu2_3_x1[0][0]                 
__________________________________________________________________________________________________
conv2_3_x2_bn (BatchNormalizati (None, 33, 23, 256)  1024        conv2_3_x1[0][0]                 
__________________________________________________________________________________________________
relu2_3_x2 (Activation)         (None, 33, 23, 256)  0           conv2_3_x2_bn[0][0]              
__________________________________________________________________________________________________
conv2_3_x2_zeropadding (ZeroPad (None, 35, 25, 256)  0           relu2_3_x2[0][0]                 
__________________________________________________________________________________________________
conv2_3_x2 (Conv2D)             (None, 33, 23, 64)   147456      conv2_3_x2_zeropadding[0][0]     
__________________________________________________________________________________________________
tf_op_layer_concat_2 (TensorFlo [(None, 33, 23, 256) 0           tf_op_layer_concat_1[0][0]       
                                                                 conv2_3_x2[0][0]                 
__________________________________________________________________________________________________
conv2_4_x1_bn (BatchNormalizati (None, 33, 23, 256)  1024        tf_op_layer_concat_2[0][0]       
__________________________________________________________________________________________________
relu2_4_x1 (Activation)         (None, 33, 23, 256)  0           conv2_4_x1_bn[0][0]              
__________________________________________________________________________________________________
conv2_4_x1 (Conv2D)             (None, 33, 23, 256)  65536       relu2_4_x1[0][0]                 
__________________________________________________________________________________________________
conv2_4_x2_bn (BatchNormalizati (None, 33, 23, 256)  1024        conv2_4_x1[0][0]                 
__________________________________________________________________________________________________
relu2_4_x2 (Activation)         (None, 33, 23, 256)  0           conv2_4_x2_bn[0][0]              
__________________________________________________________________________________________________
conv2_4_x2_zeropadding (ZeroPad (None, 35, 25, 256)  0           relu2_4_x2[0][0]                 
__________________________________________________________________________________________________
conv2_4_x2 (Conv2D)             (None, 33, 23, 64)   147456      conv2_4_x2_zeropadding[0][0]     
__________________________________________________________________________________________________
tf_op_layer_concat_3 (TensorFlo [(None, 33, 23, 320) 0           tf_op_layer_concat_2[0][0]       
                                                                 conv2_4_x2[0][0]                 
__________________________________________________________________________________________________
conv2_5_x1_bn (BatchNormalizati (None, 33, 23, 320)  1280        tf_op_layer_concat_3[0][0]       
__________________________________________________________________________________________________
relu2_5_x1 (Activation)         (None, 33, 23, 320)  0           conv2_5_x1_bn[0][0]              
__________________________________________________________________________________________________
conv2_5_x1 (Conv2D)             (None, 33, 23, 256)  81920       relu2_5_x1[0][0]                 
__________________________________________________________________________________________________
conv2_5_x2_bn (BatchNormalizati (None, 33, 23, 256)  1024        conv2_5_x1[0][0]                 
__________________________________________________________________________________________________
relu2_5_x2 (Activation)         (None, 33, 23, 256)  0           conv2_5_x2_bn[0][0]              
__________________________________________________________________________________________________
conv2_5_x2_zeropadding (ZeroPad (None, 35, 25, 256)  0           relu2_5_x2[0][0]                 
__________________________________________________________________________________________________
conv2_5_x2 (Conv2D)             (None, 33, 23, 64)   147456      conv2_5_x2_zeropadding[0][0]     
__________________________________________________________________________________________________
tf_op_layer_concat_4 (TensorFlo [(None, 33, 23, 384) 0           tf_op_layer_concat_3[0][0]       
                                                                 conv2_5_x2[0][0]                 
__________________________________________________________________________________________________
conv2_6_x1_bn (BatchNormalizati (None, 33, 23, 384)  1536        tf_op_layer_concat_4[0][0]       
__________________________________________________________________________________________________
relu2_6_x1 (Activation)         (None, 33, 23, 384)  0           conv2_6_x1_bn[0][0]              
__________________________________________________________________________________________________
conv2_6_x1 (Conv2D)             (None, 33, 23, 256)  98304       relu2_6_x1[0][0]                 
__________________________________________________________________________________________________
conv2_6_x2_bn (BatchNormalizati (None, 33, 23, 256)  1024        conv2_6_x1[0][0]                 
__________________________________________________________________________________________________
relu2_6_x2 (Activation)         (None, 33, 23, 256)  0           conv2_6_x2_bn[0][0]              
__________________________________________________________________________________________________
conv2_6_x2_zeropadding (ZeroPad (None, 35, 25, 256)  0           relu2_6_x2[0][0]                 
__________________________________________________________________________________________________
conv2_6_x2 (Conv2D)             (None, 33, 23, 64)   147456      conv2_6_x2_zeropadding[0][0]     
__________________________________________________________________________________________________
tf_op_layer_concat_5 (TensorFlo [(None, 33, 23, 448) 0           tf_op_layer_concat_4[0][0]       
                                                                 conv2_6_x2[0][0]                 
__________________________________________________________________________________________________
global_average_pooling_2d_se2_d (None, 448)          0           tf_op_layer_concat_5[0][0]       
__________________________________________________________________________________________________
dense_relu_se2_dense (Dense)    (None, 28)           12572       global_average_pooling_2d_se2_den
__________________________________________________________________________________________________
relu_se2_dense (Activation)     (None, 28)           0           dense_relu_se2_dense[0][0]       
__________________________________________________________________________________________________
dense_sigmoid_se2_dense (Dense) (None, 448)          12992       relu_se2_dense[0][0]             
__________________________________________________________________________________________________
sigmoid_se2_dense (Activation)  (None, 448)          0           dense_sigmoid_se2_dense[0][0]    
__________________________________________________________________________________________________
tf_op_layer_ExpandDims (TensorF [(None, 1, 448)]     0           sigmoid_se2_dense[0][0]          
__________________________________________________________________________________________________
tf_op_layer_ExpandDims_1 (Tenso [(None, 1, 1, 448)]  0           tf_op_layer_ExpandDims[0][0]     
__________________________________________________________________________________________________
tf_op_layer_mul (TensorFlowOpLa [(None, 33, 23, 448) 0           tf_op_layer_concat_5[0][0]       
                                                                 tf_op_layer_ExpandDims_1[0][0]   
__________________________________________________________________________________________________
conv2_blk_bn (BatchNormalizatio (None, 33, 23, 448)  1792        tf_op_layer_mul[0][0]            
__________________________________________________________________________________________________
relu2_blk (Activation)          (None, 33, 23, 448)  0           conv2_blk_bn[0][0]               
__________________________________________________________________________________________________
conv2_blk (Conv2D)              (None, 33, 23, 224)  100352      relu2_blk[0][0]                  
__________________________________________________________________________________________________
pool2 (AveragePooling2D)        (None, 16, 11, 224)  0           conv2_blk[0][0]                  
__________________________________________________________________________________________________
global_average_pooling_2d_se2_t (None, 224)          0           pool2[0][0]                      
__________________________________________________________________________________________________
dense_relu_se2_transition (Dens (None, 14)           3150        global_average_pooling_2d_se2_tra
__________________________________________________________________________________________________
relu_se2_transition (Activation (None, 14)           0           dense_relu_se2_transition[0][0]  
__________________________________________________________________________________________________
dense_sigmoid_se2_transition (D (None, 224)          3360        relu_se2_transition[0][0]        
__________________________________________________________________________________________________
sigmoid_se2_transition (Activat (None, 224)          0           dense_sigmoid_se2_transition[0][0
__________________________________________________________________________________________________
tf_op_layer_ExpandDims_2 (Tenso [(None, 1, 224)]     0           sigmoid_se2_transition[0][0]     
__________________________________________________________________________________________________
tf_op_layer_ExpandDims_3 (Tenso [(None, 1, 1, 224)]  0           tf_op_layer_ExpandDims_2[0][0]   
__________________________________________________________________________________________________
tf_op_layer_mul_1 (TensorFlowOp [(None, 16, 11, 224) 0           pool2[0][0]                      
                                                                 tf_op_layer_ExpandDims_3[0][0]   
__________________________________________________________________________________________________
conv3_1_x1_bn (BatchNormalizati (None, 16, 11, 224)  896         tf_op_layer_mul_1[0][0]          
__________________________________________________________________________________________________
relu3_1_x1 (Activation)         (None, 16, 11, 224)  0           conv3_1_x1_bn[0][0]              
__________________________________________________________________________________________________
conv3_1_x1 (Conv2D)             (None, 16, 11, 256)  57344       relu3_1_x1[0][0]                 
__________________________________________________________________________________________________
conv3_1_x2_bn (BatchNormalizati (None, 16, 11, 256)  1024        conv3_1_x1[0][0]                 
__________________________________________________________________________________________________
relu3_1_x2 (Activation)         (None, 16, 11, 256)  0           conv3_1_x2_bn[0][0]              
__________________________________________________________________________________________________
conv3_1_x2_zeropadding (ZeroPad (None, 18, 13, 256)  0           relu3_1_x2[0][0]                 
__________________________________________________________________________________________________
conv3_1_x2 (Conv2D)             (None, 16, 11, 64)   147456      conv3_1_x2_zeropadding[0][0]     
__________________________________________________________________________________________________
tf_op_layer_concat_6 (TensorFlo [(None, 16, 11, 288) 0           tf_op_layer_mul_1[0][0]          
                                                                 conv3_1_x2[0][0]                 
__________________________________________________________________________________________________
conv3_2_x1_bn (BatchNormalizati (None, 16, 11, 288)  1152        tf_op_layer_concat_6[0][0]       
__________________________________________________________________________________________________
relu3_2_x1 (Activation)         (None, 16, 11, 288)  0           conv3_2_x1_bn[0][0]              
__________________________________________________________________________________________________
conv3_2_x1 (Conv2D)             (None, 16, 11, 256)  73728       relu3_2_x1[0][0]                 
__________________________________________________________________________________________________
conv3_2_x2_bn (BatchNormalizati (None, 16, 11, 256)  1024        conv3_2_x1[0][0]                 
__________________________________________________________________________________________________
relu3_2_x2 (Activation)         (None, 16, 11, 256)  0           conv3_2_x2_bn[0][0]              
__________________________________________________________________________________________________
conv3_2_x2_zeropadding (ZeroPad (None, 18, 13, 256)  0           relu3_2_x2[0][0]                 
__________________________________________________________________________________________________
conv3_2_x2 (Conv2D)             (None, 16, 11, 64)   147456      conv3_2_x2_zeropadding[0][0]     
__________________________________________________________________________________________________
tf_op_layer_concat_7 (TensorFlo [(None, 16, 11, 352) 0           tf_op_layer_concat_6[0][0]       
                                                                 conv3_2_x2[0][0]                 
__________________________________________________________________________________________________
conv3_3_x1_bn (BatchNormalizati (None, 16, 11, 352)  1408        tf_op_layer_concat_7[0][0]       
__________________________________________________________________________________________________
relu3_3_x1 (Activation)         (None, 16, 11, 352)  0           conv3_3_x1_bn[0][0]              
__________________________________________________________________________________________________
conv3_3_x1 (Conv2D)             (None, 16, 11, 256)  90112       relu3_3_x1[0][0]                 
__________________________________________________________________________________________________
conv3_3_x2_bn (BatchNormalizati (None, 16, 11, 256)  1024        conv3_3_x1[0][0]                 
__________________________________________________________________________________________________
relu3_3_x2 (Activation)         (None, 16, 11, 256)  0           conv3_3_x2_bn[0][0]              
__________________________________________________________________________________________________
conv3_3_x2_zeropadding (ZeroPad (None, 18, 13, 256)  0           relu3_3_x2[0][0]                 
__________________________________________________________________________________________________
conv3_3_x2 (Conv2D)             (None, 16, 11, 64)   147456      conv3_3_x2_zeropadding[0][0]     
__________________________________________________________________________________________________
tf_op_layer_concat_8 (TensorFlo [(None, 16, 11, 416) 0           tf_op_layer_concat_7[0][0]       
                                                                 conv3_3_x2[0][0]                 
__________________________________________________________________________________________________
conv3_4_x1_bn (BatchNormalizati (None, 16, 11, 416)  1664        tf_op_layer_concat_8[0][0]       
__________________________________________________________________________________________________
relu3_4_x1 (Activation)         (None, 16, 11, 416)  0           conv3_4_x1_bn[0][0]              
__________________________________________________________________________________________________
conv3_4_x1 (Conv2D)             (None, 16, 11, 256)  106496      relu3_4_x1[0][0]                 
__________________________________________________________________________________________________
conv3_4_x2_bn (BatchNormalizati (None, 16, 11, 256)  1024        conv3_4_x1[0][0]                 
__________________________________________________________________________________________________
relu3_4_x2 (Activation)         (None, 16, 11, 256)  0           conv3_4_x2_bn[0][0]              
__________________________________________________________________________________________________
conv3_4_x2_zeropadding (ZeroPad (None, 18, 13, 256)  0           relu3_4_x2[0][0]                 
__________________________________________________________________________________________________
conv3_4_x2 (Conv2D)             (None, 16, 11, 64)   147456      conv3_4_x2_zeropadding[0][0]     
__________________________________________________________________________________________________
tf_op_layer_concat_9 (TensorFlo [(None, 16, 11, 480) 0           tf_op_layer_concat_8[0][0]       
                                                                 conv3_4_x2[0][0]                 
__________________________________________________________________________________________________
conv3_5_x1_bn (BatchNormalizati (None, 16, 11, 480)  1920        tf_op_layer_concat_9[0][0]       
__________________________________________________________________________________________________
relu3_5_x1 (Activation)         (None, 16, 11, 480)  0           conv3_5_x1_bn[0][0]              
__________________________________________________________________________________________________
conv3_5_x1 (Conv2D)             (None, 16, 11, 256)  122880      relu3_5_x1[0][0]                 
__________________________________________________________________________________________________
conv3_5_x2_bn (BatchNormalizati (None, 16, 11, 256)  1024        conv3_5_x1[0][0]                 
__________________________________________________________________________________________________
relu3_5_x2 (Activation)         (None, 16, 11, 256)  0           conv3_5_x2_bn[0][0]              
__________________________________________________________________________________________________
conv3_5_x2_zeropadding (ZeroPad (None, 18, 13, 256)  0           relu3_5_x2[0][0]                 
__________________________________________________________________________________________________
conv3_5_x2 (Conv2D)             (None, 16, 11, 64)   147456      conv3_5_x2_zeropadding[0][0]     
__________________________________________________________________________________________________
tf_op_layer_concat_10 (TensorFl [(None, 16, 11, 544) 0           tf_op_layer_concat_9[0][0]       
                                                                 conv3_5_x2[0][0]                 
__________________________________________________________________________________________________
conv3_6_x1_bn (BatchNormalizati (None, 16, 11, 544)  2176        tf_op_layer_concat_10[0][0]      
__________________________________________________________________________________________________
relu3_6_x1 (Activation)         (None, 16, 11, 544)  0           conv3_6_x1_bn[0][0]              
__________________________________________________________________________________________________
conv3_6_x1 (Conv2D)             (None, 16, 11, 256)  139264      relu3_6_x1[0][0]                 
__________________________________________________________________________________________________
conv3_6_x2_bn (BatchNormalizati (None, 16, 11, 256)  1024        conv3_6_x1[0][0]                 
__________________________________________________________________________________________________
relu3_6_x2 (Activation)         (None, 16, 11, 256)  0           conv3_6_x2_bn[0][0]              
__________________________________________________________________________________________________
conv3_6_x2_zeropadding (ZeroPad (None, 18, 13, 256)  0           relu3_6_x2[0][0]                 
__________________________________________________________________________________________________
conv3_6_x2 (Conv2D)             (None, 16, 11, 64)   147456      conv3_6_x2_zeropadding[0][0]     
__________________________________________________________________________________________________
tf_op_layer_concat_11 (TensorFl [(None, 16, 11, 608) 0           tf_op_layer_concat_10[0][0]      
                                                                 conv3_6_x2[0][0]                 
__________________________________________________________________________________________________
conv3_7_x1_bn (BatchNormalizati (None, 16, 11, 608)  2432        tf_op_layer_concat_11[0][0]      
__________________________________________________________________________________________________
relu3_7_x1 (Activation)         (None, 16, 11, 608)  0           conv3_7_x1_bn[0][0]              
__________________________________________________________________________________________________
conv3_7_x1 (Conv2D)             (None, 16, 11, 256)  155648      relu3_7_x1[0][0]                 
__________________________________________________________________________________________________
conv3_7_x2_bn (BatchNormalizati (None, 16, 11, 256)  1024        conv3_7_x1[0][0]                 
__________________________________________________________________________________________________
relu3_7_x2 (Activation)         (None, 16, 11, 256)  0           conv3_7_x2_bn[0][0]              
__________________________________________________________________________________________________
conv3_7_x2_zeropadding (ZeroPad (None, 18, 13, 256)  0           relu3_7_x2[0][0]                 
__________________________________________________________________________________________________
conv3_7_x2 (Conv2D)             (None, 16, 11, 64)   147456      conv3_7_x2_zeropadding[0][0]     
__________________________________________________________________________________________________
tf_op_layer_concat_12 (TensorFl [(None, 16, 11, 672) 0           tf_op_layer_concat_11[0][0]      
                                                                 conv3_7_x2[0][0]                 
__________________________________________________________________________________________________
conv3_8_x1_bn (BatchNormalizati (None, 16, 11, 672)  2688        tf_op_layer_concat_12[0][0]      
__________________________________________________________________________________________________
relu3_8_x1 (Activation)         (None, 16, 11, 672)  0           conv3_8_x1_bn[0][0]              
__________________________________________________________________________________________________
conv3_8_x1 (Conv2D)             (None, 16, 11, 256)  172032      relu3_8_x1[0][0]                 
__________________________________________________________________________________________________
conv3_8_x2_bn (BatchNormalizati (None, 16, 11, 256)  1024        conv3_8_x1[0][0]                 
__________________________________________________________________________________________________
relu3_8_x2 (Activation)         (None, 16, 11, 256)  0           conv3_8_x2_bn[0][0]              
__________________________________________________________________________________________________
conv3_8_x2_zeropadding (ZeroPad (None, 18, 13, 256)  0           relu3_8_x2[0][0]                 
__________________________________________________________________________________________________
conv3_8_x2 (Conv2D)             (None, 16, 11, 64)   147456      conv3_8_x2_zeropadding[0][0]     
__________________________________________________________________________________________________
tf_op_layer_concat_13 (TensorFl [(None, 16, 11, 736) 0           tf_op_layer_concat_12[0][0]      
                                                                 conv3_8_x2[0][0]                 
__________________________________________________________________________________________________
conv3_9_x1_bn (BatchNormalizati (None, 16, 11, 736)  2944        tf_op_layer_concat_13[0][0]      
__________________________________________________________________________________________________
relu3_9_x1 (Activation)         (None, 16, 11, 736)  0           conv3_9_x1_bn[0][0]              
__________________________________________________________________________________________________
conv3_9_x1 (Conv2D)             (None, 16, 11, 256)  188416      relu3_9_x1[0][0]                 
__________________________________________________________________________________________________
conv3_9_x2_bn (BatchNormalizati (None, 16, 11, 256)  1024        conv3_9_x1[0][0]                 
__________________________________________________________________________________________________
relu3_9_x2 (Activation)         (None, 16, 11, 256)  0           conv3_9_x2_bn[0][0]              
__________________________________________________________________________________________________
conv3_9_x2_zeropadding (ZeroPad (None, 18, 13, 256)  0           relu3_9_x2[0][0]                 
__________________________________________________________________________________________________
conv3_9_x2 (Conv2D)             (None, 16, 11, 64)   147456      conv3_9_x2_zeropadding[0][0]     
__________________________________________________________________________________________________
tf_op_layer_concat_14 (TensorFl [(None, 16, 11, 800) 0           tf_op_layer_concat_13[0][0]      
                                                                 conv3_9_x2[0][0]                 
__________________________________________________________________________________________________
conv3_10_x1_bn (BatchNormalizat (None, 16, 11, 800)  3200        tf_op_layer_concat_14[0][0]      
__________________________________________________________________________________________________
relu3_10_x1 (Activation)        (None, 16, 11, 800)  0           conv3_10_x1_bn[0][0]             
__________________________________________________________________________________________________
conv3_10_x1 (Conv2D)            (None, 16, 11, 256)  204800      relu3_10_x1[0][0]                
__________________________________________________________________________________________________
conv3_10_x2_bn (BatchNormalizat (None, 16, 11, 256)  1024        conv3_10_x1[0][0]                
__________________________________________________________________________________________________
relu3_10_x2 (Activation)        (None, 16, 11, 256)  0           conv3_10_x2_bn[0][0]             
__________________________________________________________________________________________________
conv3_10_x2_zeropadding (ZeroPa (None, 18, 13, 256)  0           relu3_10_x2[0][0]                
__________________________________________________________________________________________________
conv3_10_x2 (Conv2D)            (None, 16, 11, 64)   147456      conv3_10_x2_zeropadding[0][0]    
__________________________________________________________________________________________________
tf_op_layer_concat_15 (TensorFl [(None, 16, 11, 864) 0           tf_op_layer_concat_14[0][0]      
                                                                 conv3_10_x2[0][0]                
__________________________________________________________________________________________________
conv3_11_x1_bn (BatchNormalizat (None, 16, 11, 864)  3456        tf_op_layer_concat_15[0][0]      
__________________________________________________________________________________________________
relu3_11_x1 (Activation)        (None, 16, 11, 864)  0           conv3_11_x1_bn[0][0]             
__________________________________________________________________________________________________
conv3_11_x1 (Conv2D)            (None, 16, 11, 256)  221184      relu3_11_x1[0][0]                
__________________________________________________________________________________________________
conv3_11_x2_bn (BatchNormalizat (None, 16, 11, 256)  1024        conv3_11_x1[0][0]                
__________________________________________________________________________________________________
relu3_11_x2 (Activation)        (None, 16, 11, 256)  0           conv3_11_x2_bn[0][0]             
__________________________________________________________________________________________________
conv3_11_x2_zeropadding (ZeroPa (None, 18, 13, 256)  0           relu3_11_x2[0][0]                
__________________________________________________________________________________________________
conv3_11_x2 (Conv2D)            (None, 16, 11, 64)   147456      conv3_11_x2_zeropadding[0][0]    
__________________________________________________________________________________________________
tf_op_layer_concat_16 (TensorFl [(None, 16, 11, 928) 0           tf_op_layer_concat_15[0][0]      
                                                                 conv3_11_x2[0][0]                
__________________________________________________________________________________________________
conv3_12_x1_bn (BatchNormalizat (None, 16, 11, 928)  3712        tf_op_layer_concat_16[0][0]      
__________________________________________________________________________________________________
relu3_12_x1 (Activation)        (None, 16, 11, 928)  0           conv3_12_x1_bn[0][0]             
__________________________________________________________________________________________________
conv3_12_x1 (Conv2D)            (None, 16, 11, 256)  237568      relu3_12_x1[0][0]                
__________________________________________________________________________________________________
conv3_12_x2_bn (BatchNormalizat (None, 16, 11, 256)  1024        conv3_12_x1[0][0]                
__________________________________________________________________________________________________
relu3_12_x2 (Activation)        (None, 16, 11, 256)  0           conv3_12_x2_bn[0][0]             
__________________________________________________________________________________________________
conv3_12_x2_zeropadding (ZeroPa (None, 18, 13, 256)  0           relu3_12_x2[0][0]                
__________________________________________________________________________________________________
conv3_12_x2 (Conv2D)            (None, 16, 11, 64)   147456      conv3_12_x2_zeropadding[0][0]    
__________________________________________________________________________________________________
tf_op_layer_concat_17 (TensorFl [(None, 16, 11, 992) 0           tf_op_layer_concat_16[0][0]      
                                                                 conv3_12_x2[0][0]                
__________________________________________________________________________________________________
global_average_pooling_2d_se3_d (None, 992)          0           tf_op_layer_concat_17[0][0]      
__________________________________________________________________________________________________
dense_relu_se3_dense (Dense)    (None, 62)           61566       global_average_pooling_2d_se3_den
__________________________________________________________________________________________________
relu_se3_dense (Activation)     (None, 62)           0           dense_relu_se3_dense[0][0]       
__________________________________________________________________________________________________
dense_sigmoid_se3_dense (Dense) (None, 992)          62496       relu_se3_dense[0][0]             
__________________________________________________________________________________________________
sigmoid_se3_dense (Activation)  (None, 992)          0           dense_sigmoid_se3_dense[0][0]    
__________________________________________________________________________________________________
tf_op_layer_ExpandDims_4 (Tenso [(None, 1, 992)]     0           sigmoid_se3_dense[0][0]          
__________________________________________________________________________________________________
tf_op_layer_ExpandDims_5 (Tenso [(None, 1, 1, 992)]  0           tf_op_layer_ExpandDims_4[0][0]   
__________________________________________________________________________________________________
tf_op_layer_mul_2 (TensorFlowOp [(None, 16, 11, 992) 0           tf_op_layer_concat_17[0][0]      
                                                                 tf_op_layer_ExpandDims_5[0][0]   
__________________________________________________________________________________________________
conv_final_blk_bn (BatchNormali (None, 16, 11, 992)  3968        tf_op_layer_mul_2[0][0]          
__________________________________________________________________________________________________
relu_final_blk (Activation)     (None, 16, 11, 992)  0           conv_final_blk_bn[0][0]          
__________________________________________________________________________________________________
pool_final (GlobalAveragePoolin (None, 992)          0           relu_final_blk[0][0]             
__________________________________________________________________________________________________
fc6 (Dense)                     (None, 20)           19860       pool_final[0][0]                 
__________________________________________________________________________________________________
prob (Activation)               (None, 20)           0           fc6[0][0]                        
==================================================================================================
Total params: 5,110,972
Trainable params: 5,082,236
Non-trainable params: 28,736
__________________________________________________________________________________________________
Model: "model"
__________________________________________________________________________________________________
Layer (type)                    Output Shape         Param #     Connected to                     
==================================================================================================
data (InputLayer)               [(None, 132, 92, 3)] 0                                            
__________________________________________________________________________________________________
conv1_zeropadding (ZeroPadding2 (None, 138, 98, 3)   0           data[0][0]                       
__________________________________________________________________________________________________
conv1 (Conv2D)                  (None, 66, 46, 64)   9408        conv1_zeropadding[0][0]          
__________________________________________________________________________________________________
conv1_bn (BatchNormalization)   (None, 66, 46, 64)   256         conv1[0][0]                      
__________________________________________________________________________________________________
relu1 (Activation)              (None, 66, 46, 64)   0           conv1_bn[0][0]                   
__________________________________________________________________________________________________
pool1_zeropadding (ZeroPadding2 (None, 68, 48, 64)   0           relu1[0][0]                      
__________________________________________________________________________________________________
pool1 (MaxPooling2D)            (None, 33, 23, 64)   0           pool1_zeropadding[0][0]          
__________________________________________________________________________________________________
conv2_1_x1_bn (BatchNormalizati (None, 33, 23, 64)   256         pool1[0][0]                      
__________________________________________________________________________________________________
relu2_1_x1 (Activation)         (None, 33, 23, 64)   0           conv2_1_x1_bn[0][0]              
__________________________________________________________________________________________________
conv2_1_x1 (Conv2D)             (None, 33, 23, 256)  16384       relu2_1_x1[0][0]                 
__________________________________________________________________________________________________
conv2_1_x2_bn (BatchNormalizati (None, 33, 23, 256)  1024        conv2_1_x1[0][0]                 
__________________________________________________________________________________________________
relu2_1_x2 (Activation)         (None, 33, 23, 256)  0           conv2_1_x2_bn[0][0]              
__________________________________________________________________________________________________
conv2_1_x2_zeropadding (ZeroPad (None, 35, 25, 256)  0           relu2_1_x2[0][0]                 
__________________________________________________________________________________________________
conv2_1_x2 (Conv2D)             (None, 33, 23, 64)   147456      conv2_1_x2_zeropadding[0][0]     
__________________________________________________________________________________________________
tf_op_layer_concat (TensorFlowO [(None, 33, 23, 128) 0           pool1[0][0]                      
                                                                 conv2_1_x2[0][0]                 
__________________________________________________________________________________________________
conv2_2_x1_bn (BatchNormalizati (None, 33, 23, 128)  512         tf_op_layer_concat[0][0]         
__________________________________________________________________________________________________
relu2_2_x1 (Activation)         (None, 33, 23, 128)  0           conv2_2_x1_bn[0][0]              
__________________________________________________________________________________________________
conv2_2_x1 (Conv2D)             (None, 33, 23, 256)  32768       relu2_2_x1[0][0]                 
__________________________________________________________________________________________________
conv2_2_x2_bn (BatchNormalizati (None, 33, 23, 256)  1024        conv2_2_x1[0][0]                 
__________________________________________________________________________________________________
relu2_2_x2 (Activation)         (None, 33, 23, 256)  0           conv2_2_x2_bn[0][0]              
__________________________________________________________________________________________________
conv2_2_x2_zeropadding (ZeroPad (None, 35, 25, 256)  0           relu2_2_x2[0][0]                 
__________________________________________________________________________________________________
conv2_2_x2 (Conv2D)             (None, 33, 23, 64)   147456      conv2_2_x2_zeropadding[0][0]     
__________________________________________________________________________________________________
tf_op_layer_concat_1 (TensorFlo [(None, 33, 23, 192) 0           tf_op_layer_concat[0][0]         
                                                                 conv2_2_x2[0][0]                 
__________________________________________________________________________________________________
conv2_3_x1_bn (BatchNormalizati (None, 33, 23, 192)  768         tf_op_layer_concat_1[0][0]       
__________________________________________________________________________________________________
relu2_3_x1 (Activation)         (None, 33, 23, 192)  0           conv2_3_x1_bn[0][0]              
__________________________________________________________________________________________________
conv2_3_x1 (Conv2D)             (None, 33, 23, 256)  49152       relu2_3_x1[0][0]                 
__________________________________________________________________________________________________
conv2_3_x2_bn (BatchNormalizati (None, 33, 23, 256)  1024        conv2_3_x1[0][0]                 
__________________________________________________________________________________________________
relu2_3_x2 (Activation)         (None, 33, 23, 256)  0           conv2_3_x2_bn[0][0]              
__________________________________________________________________________________________________
conv2_3_x2_zeropadding (ZeroPad (None, 35, 25, 256)  0           relu2_3_x2[0][0]                 
__________________________________________________________________________________________________
conv2_3_x2 (Conv2D)             (None, 33, 23, 64)   147456      conv2_3_x2_zeropadding[0][0]     
__________________________________________________________________________________________________
tf_op_layer_concat_2 (TensorFlo [(None, 33, 23, 256) 0           tf_op_layer_concat_1[0][0]       
                                                                 conv2_3_x2[0][0]                 
__________________________________________________________________________________________________
conv2_4_x1_bn (BatchNormalizati (None, 33, 23, 256)  1024        tf_op_layer_concat_2[0][0]       
__________________________________________________________________________________________________
relu2_4_x1 (Activation)         (None, 33, 23, 256)  0           conv2_4_x1_bn[0][0]              
__________________________________________________________________________________________________
conv2_4_x1 (Conv2D)             (None, 33, 23, 256)  65536       relu2_4_x1[0][0]                 
__________________________________________________________________________________________________
conv2_4_x2_bn (BatchNormalizati (None, 33, 23, 256)  1024        conv2_4_x1[0][0]                 
__________________________________________________________________________________________________
relu2_4_x2 (Activation)         (None, 33, 23, 256)  0           conv2_4_x2_bn[0][0]              
__________________________________________________________________________________________________
conv2_4_x2_zeropadding (ZeroPad (None, 35, 25, 256)  0           relu2_4_x2[0][0]                 
__________________________________________________________________________________________________
conv2_4_x2 (Conv2D)             (None, 33, 23, 64)   147456      conv2_4_x2_zeropadding[0][0]     
__________________________________________________________________________________________________
tf_op_layer_concat_3 (TensorFlo [(None, 33, 23, 320) 0           tf_op_layer_concat_2[0][0]       
                                                                 conv2_4_x2[0][0]                 
__________________________________________________________________________________________________
conv2_5_x1_bn (BatchNormalizati (None, 33, 23, 320)  1280        tf_op_layer_concat_3[0][0]       
__________________________________________________________________________________________________
relu2_5_x1 (Activation)         (None, 33, 23, 320)  0           conv2_5_x1_bn[0][0]              
__________________________________________________________________________________________________
conv2_5_x1 (Conv2D)             (None, 33, 23, 256)  81920       relu2_5_x1[0][0]                 
__________________________________________________________________________________________________
conv2_5_x2_bn (BatchNormalizati (None, 33, 23, 256)  1024        conv2_5_x1[0][0]                 
__________________________________________________________________________________________________
relu2_5_x2 (Activation)         (None, 33, 23, 256)  0           conv2_5_x2_bn[0][0]              
__________________________________________________________________________________________________
conv2_5_x2_zeropadding (ZeroPad (None, 35, 25, 256)  0           relu2_5_x2[0][0]                 
__________________________________________________________________________________________________
conv2_5_x2 (Conv2D)             (None, 33, 23, 64)   147456      conv2_5_x2_zeropadding[0][0]     
__________________________________________________________________________________________________
tf_op_layer_concat_4 (TensorFlo [(None, 33, 23, 384) 0           tf_op_layer_concat_3[0][0]       
                                                                 conv2_5_x2[0][0]                 
__________________________________________________________________________________________________
conv2_6_x1_bn (BatchNormalizati (None, 33, 23, 384)  1536        tf_op_layer_concat_4[0][0]       
__________________________________________________________________________________________________
relu2_6_x1 (Activation)         (None, 33, 23, 384)  0           conv2_6_x1_bn[0][0]              
__________________________________________________________________________________________________
conv2_6_x1 (Conv2D)             (None, 33, 23, 256)  98304       relu2_6_x1[0][0]                 
__________________________________________________________________________________________________
conv2_6_x2_bn (BatchNormalizati (None, 33, 23, 256)  1024        conv2_6_x1[0][0]                 
__________________________________________________________________________________________________
relu2_6_x2 (Activation)         (None, 33, 23, 256)  0           conv2_6_x2_bn[0][0]              
__________________________________________________________________________________________________
conv2_6_x2_zeropadding (ZeroPad (None, 35, 25, 256)  0           relu2_6_x2[0][0]                 
__________________________________________________________________________________________________
conv2_6_x2 (Conv2D)             (None, 33, 23, 64)   147456      conv2_6_x2_zeropadding[0][0]     
__________________________________________________________________________________________________
tf_op_layer_concat_5 (TensorFlo [(None, 33, 23, 448) 0           tf_op_layer_concat_4[0][0]       
                                                                 conv2_6_x2[0][0]                 
__________________________________________________________________________________________________
global_average_pooling_2d_se2_d (None, 448)          0           tf_op_layer_concat_5[0][0]       
__________________________________________________________________________________________________
dense_relu_se2_dense (Dense)    (None, 28)           12572       global_average_pooling_2d_se2_den
__________________________________________________________________________________________________
relu_se2_dense (Activation)     (None, 28)           0           dense_relu_se2_dense[0][0]       
__________________________________________________________________________________________________
dense_sigmoid_se2_dense (Dense) (None, 448)          12992       relu_se2_dense[0][0]             
__________________________________________________________________________________________________
sigmoid_se2_dense (Activation)  (None, 448)          0           dense_sigmoid_se2_dense[0][0]    
__________________________________________________________________________________________________
tf_op_layer_ExpandDims (TensorF [(None, 1, 448)]     0           sigmoid_se2_dense[0][0]          
__________________________________________________________________________________________________
tf_op_layer_ExpandDims_1 (Tenso [(None, 1, 1, 448)]  0           tf_op_layer_ExpandDims[0][0]     
__________________________________________________________________________________________________
tf_op_layer_mul (TensorFlowOpLa [(None, 33, 23, 448) 0           tf_op_layer_concat_5[0][0]       
                                                                 tf_op_layer_ExpandDims_1[0][0]   
__________________________________________________________________________________________________
conv2_blk_bn (BatchNormalizatio (None, 33, 23, 448)  1792        tf_op_layer_mul[0][0]            
__________________________________________________________________________________________________
relu2_blk (Activation)          (None, 33, 23, 448)  0           conv2_blk_bn[0][0]               
__________________________________________________________________________________________________
conv2_blk (Conv2D)              (None, 33, 23, 224)  100352      relu2_blk[0][0]                  
__________________________________________________________________________________________________
pool2 (AveragePooling2D)        (None, 16, 11, 224)  0           conv2_blk[0][0]                  
__________________________________________________________________________________________________
global_average_pooling_2d_se2_t (None, 224)          0           pool2[0][0]                      
__________________________________________________________________________________________________
dense_relu_se2_transition (Dens (None, 14)           3150        global_average_pooling_2d_se2_tra
__________________________________________________________________________________________________
relu_se2_transition (Activation (None, 14)           0           dense_relu_se2_transition[0][0]  
__________________________________________________________________________________________________
dense_sigmoid_se2_transition (D (None, 224)          3360        relu_se2_transition[0][0]        
__________________________________________________________________________________________________
sigmoid_se2_transition (Activat (None, 224)          0           dense_sigmoid_se2_transition[0][0
__________________________________________________________________________________________________
tf_op_layer_ExpandDims_2 (Tenso [(None, 1, 224)]     0           sigmoid_se2_transition[0][0]     
__________________________________________________________________________________________________
tf_op_layer_ExpandDims_3 (Tenso [(None, 1, 1, 224)]  0           tf_op_layer_ExpandDims_2[0][0]   
__________________________________________________________________________________________________
tf_op_layer_mul_1 (TensorFlowOp [(None, 16, 11, 224) 0           pool2[0][0]                      
                                                                 tf_op_layer_ExpandDims_3[0][0]   
__________________________________________________________________________________________________
conv3_1_x1_bn (BatchNormalizati (None, 16, 11, 224)  896         tf_op_layer_mul_1[0][0]          
__________________________________________________________________________________________________
relu3_1_x1 (Activation)         (None, 16, 11, 224)  0           conv3_1_x1_bn[0][0]              
__________________________________________________________________________________________________
conv3_1_x1 (Conv2D)             (None, 16, 11, 256)  57344       relu3_1_x1[0][0]                 
__________________________________________________________________________________________________
conv3_1_x2_bn (BatchNormalizati (None, 16, 11, 256)  1024        conv3_1_x1[0][0]                 
__________________________________________________________________________________________________
relu3_1_x2 (Activation)         (None, 16, 11, 256)  0           conv3_1_x2_bn[0][0]              
__________________________________________________________________________________________________
conv3_1_x2_zeropadding (ZeroPad (None, 18, 13, 256)  0           relu3_1_x2[0][0]                 
__________________________________________________________________________________________________
conv3_1_x2 (Conv2D)             (None, 16, 11, 64)   147456      conv3_1_x2_zeropadding[0][0]     
__________________________________________________________________________________________________
tf_op_layer_concat_6 (TensorFlo [(None, 16, 11, 288) 0           tf_op_layer_mul_1[0][0]          
                                                                 conv3_1_x2[0][0]                 
__________________________________________________________________________________________________
conv3_2_x1_bn (BatchNormalizati (None, 16, 11, 288)  1152        tf_op_layer_concat_6[0][0]       
__________________________________________________________________________________________________
relu3_2_x1 (Activation)         (None, 16, 11, 288)  0           conv3_2_x1_bn[0][0]              
__________________________________________________________________________________________________
conv3_2_x1 (Conv2D)             (None, 16, 11, 256)  73728       relu3_2_x1[0][0]                 
__________________________________________________________________________________________________
conv3_2_x2_bn (BatchNormalizati (None, 16, 11, 256)  1024        conv3_2_x1[0][0]                 
__________________________________________________________________________________________________
relu3_2_x2 (Activation)         (None, 16, 11, 256)  0           conv3_2_x2_bn[0][0]              
__________________________________________________________________________________________________
conv3_2_x2_zeropadding (ZeroPad (None, 18, 13, 256)  0           relu3_2_x2[0][0]                 
__________________________________________________________________________________________________
conv3_2_x2 (Conv2D)             (None, 16, 11, 64)   147456      conv3_2_x2_zeropadding[0][0]     
__________________________________________________________________________________________________
tf_op_layer_concat_7 (TensorFlo [(None, 16, 11, 352) 0           tf_op_layer_concat_6[0][0]       
                                                                 conv3_2_x2[0][0]                 
__________________________________________________________________________________________________
conv3_3_x1_bn (BatchNormalizati (None, 16, 11, 352)  1408        tf_op_layer_concat_7[0][0]       
__________________________________________________________________________________________________
relu3_3_x1 (Activation)         (None, 16, 11, 352)  0           conv3_3_x1_bn[0][0]              
__________________________________________________________________________________________________
conv3_3_x1 (Conv2D)             (None, 16, 11, 256)  90112       relu3_3_x1[0][0]                 
__________________________________________________________________________________________________
conv3_3_x2_bn (BatchNormalizati (None, 16, 11, 256)  1024        conv3_3_x1[0][0]                 
__________________________________________________________________________________________________
relu3_3_x2 (Activation)         (None, 16, 11, 256)  0           conv3_3_x2_bn[0][0]              
__________________________________________________________________________________________________
conv3_3_x2_zeropadding (ZeroPad (None, 18, 13, 256)  0           relu3_3_x2[0][0]                 
__________________________________________________________________________________________________
conv3_3_x2 (Conv2D)             (None, 16, 11, 64)   147456      conv3_3_x2_zeropadding[0][0]     
__________________________________________________________________________________________________
tf_op_layer_concat_8 (TensorFlo [(None, 16, 11, 416) 0           tf_op_layer_concat_7[0][0]       
                                                                 conv3_3_x2[0][0]                 
__________________________________________________________________________________________________
conv3_4_x1_bn (BatchNormalizati (None, 16, 11, 416)  1664        tf_op_layer_concat_8[0][0]       
__________________________________________________________________________________________________
relu3_4_x1 (Activation)         (None, 16, 11, 416)  0           conv3_4_x1_bn[0][0]              
__________________________________________________________________________________________________
conv3_4_x1 (Conv2D)             (None, 16, 11, 256)  106496      relu3_4_x1[0][0]                 
__________________________________________________________________________________________________
conv3_4_x2_bn (BatchNormalizati (None, 16, 11, 256)  1024        conv3_4_x1[0][0]                 
__________________________________________________________________________________________________
relu3_4_x2 (Activation)         (None, 16, 11, 256)  0           conv3_4_x2_bn[0][0]              
__________________________________________________________________________________________________
conv3_4_x2_zeropadding (ZeroPad (None, 18, 13, 256)  0           relu3_4_x2[0][0]                 
__________________________________________________________________________________________________
conv3_4_x2 (Conv2D)             (None, 16, 11, 64)   147456      conv3_4_x2_zeropadding[0][0]     
__________________________________________________________________________________________________
tf_op_layer_concat_9 (TensorFlo [(None, 16, 11, 480) 0           tf_op_layer_concat_8[0][0]       
                                                                 conv3_4_x2[0][0]                 
__________________________________________________________________________________________________
conv3_5_x1_bn (BatchNormalizati (None, 16, 11, 480)  1920        tf_op_layer_concat_9[0][0]       
__________________________________________________________________________________________________
relu3_5_x1 (Activation)         (None, 16, 11, 480)  0           conv3_5_x1_bn[0][0]              
__________________________________________________________________________________________________
conv3_5_x1 (Conv2D)             (None, 16, 11, 256)  122880      relu3_5_x1[0][0]                 
__________________________________________________________________________________________________
conv3_5_x2_bn (BatchNormalizati (None, 16, 11, 256)  1024        conv3_5_x1[0][0]                 
__________________________________________________________________________________________________
relu3_5_x2 (Activation)         (None, 16, 11, 256)  0           conv3_5_x2_bn[0][0]              
__________________________________________________________________________________________________
conv3_5_x2_zeropadding (ZeroPad (None, 18, 13, 256)  0           relu3_5_x2[0][0]                 
__________________________________________________________________________________________________
conv3_5_x2 (Conv2D)             (None, 16, 11, 64)   147456      conv3_5_x2_zeropadding[0][0]     
__________________________________________________________________________________________________
tf_op_layer_concat_10 (TensorFl [(None, 16, 11, 544) 0           tf_op_layer_concat_9[0][0]       
                                                                 conv3_5_x2[0][0]                 
__________________________________________________________________________________________________
conv3_6_x1_bn (BatchNormalizati (None, 16, 11, 544)  2176        tf_op_layer_concat_10[0][0]      
__________________________________________________________________________________________________
relu3_6_x1 (Activation)         (None, 16, 11, 544)  0           conv3_6_x1_bn[0][0]              
__________________________________________________________________________________________________
conv3_6_x1 (Conv2D)             (None, 16, 11, 256)  139264      relu3_6_x1[0][0]                 
__________________________________________________________________________________________________
conv3_6_x2_bn (BatchNormalizati (None, 16, 11, 256)  1024        conv3_6_x1[0][0]                 
__________________________________________________________________________________________________
relu3_6_x2 (Activation)         (None, 16, 11, 256)  0           conv3_6_x2_bn[0][0]              
__________________________________________________________________________________________________
conv3_6_x2_zeropadding (ZeroPad (None, 18, 13, 256)  0           relu3_6_x2[0][0]                 
__________________________________________________________________________________________________
conv3_6_x2 (Conv2D)             (None, 16, 11, 64)   147456      conv3_6_x2_zeropadding[0][0]     
__________________________________________________________________________________________________
tf_op_layer_concat_11 (TensorFl [(None, 16, 11, 608) 0           tf_op_layer_concat_10[0][0]      
                                                                 conv3_6_x2[0][0]                 
__________________________________________________________________________________________________
conv3_7_x1_bn (BatchNormalizati (None, 16, 11, 608)  2432        tf_op_layer_concat_11[0][0]      
__________________________________________________________________________________________________
relu3_7_x1 (Activation)         (None, 16, 11, 608)  0           conv3_7_x1_bn[0][0]              
__________________________________________________________________________________________________
conv3_7_x1 (Conv2D)             (None, 16, 11, 256)  155648      relu3_7_x1[0][0]                 
__________________________________________________________________________________________________
conv3_7_x2_bn (BatchNormalizati (None, 16, 11, 256)  1024        conv3_7_x1[0][0]                 
__________________________________________________________________________________________________
relu3_7_x2 (Activation)         (None, 16, 11, 256)  0           conv3_7_x2_bn[0][0]              
__________________________________________________________________________________________________
conv3_7_x2_zeropadding (ZeroPad (None, 18, 13, 256)  0           relu3_7_x2[0][0]                 
__________________________________________________________________________________________________
conv3_7_x2 (Conv2D)             (None, 16, 11, 64)   147456      conv3_7_x2_zeropadding[0][0]     
__________________________________________________________________________________________________
tf_op_layer_concat_12 (TensorFl [(None, 16, 11, 672) 0           tf_op_layer_concat_11[0][0]      
                                                                 conv3_7_x2[0][0]                 
__________________________________________________________________________________________________
conv3_8_x1_bn (BatchNormalizati (None, 16, 11, 672)  2688        tf_op_layer_concat_12[0][0]      
__________________________________________________________________________________________________
relu3_8_x1 (Activation)         (None, 16, 11, 672)  0           conv3_8_x1_bn[0][0]              
__________________________________________________________________________________________________
conv3_8_x1 (Conv2D)             (None, 16, 11, 256)  172032      relu3_8_x1[0][0]                 
__________________________________________________________________________________________________
conv3_8_x2_bn (BatchNormalizati (None, 16, 11, 256)  1024        conv3_8_x1[0][0]                 
__________________________________________________________________________________________________
relu3_8_x2 (Activation)         (None, 16, 11, 256)  0           conv3_8_x2_bn[0][0]              
__________________________________________________________________________________________________
conv3_8_x2_zeropadding (ZeroPad (None, 18, 13, 256)  0           relu3_8_x2[0][0]                 
__________________________________________________________________________________________________
conv3_8_x2 (Conv2D)             (None, 16, 11, 64)   147456      conv3_8_x2_zeropadding[0][0]     
__________________________________________________________________________________________________
tf_op_layer_concat_13 (TensorFl [(None, 16, 11, 736) 0           tf_op_layer_concat_12[0][0]      
                                                                 conv3_8_x2[0][0]                 
__________________________________________________________________________________________________
conv3_9_x1_bn (BatchNormalizati (None, 16, 11, 736)  2944        tf_op_layer_concat_13[0][0]      
__________________________________________________________________________________________________
relu3_9_x1 (Activation)         (None, 16, 11, 736)  0           conv3_9_x1_bn[0][0]              
__________________________________________________________________________________________________
conv3_9_x1 (Conv2D)             (None, 16, 11, 256)  188416      relu3_9_x1[0][0]                 
__________________________________________________________________________________________________
conv3_9_x2_bn (BatchNormalizati (None, 16, 11, 256)  1024        conv3_9_x1[0][0]                 
__________________________________________________________________________________________________
relu3_9_x2 (Activation)         (None, 16, 11, 256)  0           conv3_9_x2_bn[0][0]              
__________________________________________________________________________________________________
conv3_9_x2_zeropadding (ZeroPad (None, 18, 13, 256)  0           relu3_9_x2[0][0]                 
__________________________________________________________________________________________________
conv3_9_x2 (Conv2D)             (None, 16, 11, 64)   147456      conv3_9_x2_zeropadding[0][0]     
__________________________________________________________________________________________________
tf_op_layer_concat_14 (TensorFl [(None, 16, 11, 800) 0           tf_op_layer_concat_13[0][0]      
                                                                 conv3_9_x2[0][0]                 
__________________________________________________________________________________________________
conv3_10_x1_bn (BatchNormalizat (None, 16, 11, 800)  3200        tf_op_layer_concat_14[0][0]      
__________________________________________________________________________________________________
relu3_10_x1 (Activation)        (None, 16, 11, 800)  0           conv3_10_x1_bn[0][0]             
__________________________________________________________________________________________________
conv3_10_x1 (Conv2D)            (None, 16, 11, 256)  204800      relu3_10_x1[0][0]                
__________________________________________________________________________________________________
conv3_10_x2_bn (BatchNormalizat (None, 16, 11, 256)  1024        conv3_10_x1[0][0]                
__________________________________________________________________________________________________
relu3_10_x2 (Activation)        (None, 16, 11, 256)  0           conv3_10_x2_bn[0][0]             
__________________________________________________________________________________________________
conv3_10_x2_zeropadding (ZeroPa (None, 18, 13, 256)  0           relu3_10_x2[0][0]                
__________________________________________________________________________________________________
conv3_10_x2 (Conv2D)            (None, 16, 11, 64)   147456      conv3_10_x2_zeropadding[0][0]    
__________________________________________________________________________________________________
tf_op_layer_concat_15 (TensorFl [(None, 16, 11, 864) 0           tf_op_layer_concat_14[0][0]      
                                                                 conv3_10_x2[0][0]                
__________________________________________________________________________________________________
conv3_11_x1_bn (BatchNormalizat (None, 16, 11, 864)  3456        tf_op_layer_concat_15[0][0]      
__________________________________________________________________________________________________
relu3_11_x1 (Activation)        (None, 16, 11, 864)  0           conv3_11_x1_bn[0][0]             
__________________________________________________________________________________________________
conv3_11_x1 (Conv2D)            (None, 16, 11, 256)  221184      relu3_11_x1[0][0]                
__________________________________________________________________________________________________
conv3_11_x2_bn (BatchNormalizat (None, 16, 11, 256)  1024        conv3_11_x1[0][0]                
__________________________________________________________________________________________________
relu3_11_x2 (Activation)        (None, 16, 11, 256)  0           conv3_11_x2_bn[0][0]             
__________________________________________________________________________________________________
conv3_11_x2_zeropadding (ZeroPa (None, 18, 13, 256)  0           relu3_11_x2[0][0]                
__________________________________________________________________________________________________
conv3_11_x2 (Conv2D)            (None, 16, 11, 64)   147456      conv3_11_x2_zeropadding[0][0]    
__________________________________________________________________________________________________
tf_op_layer_concat_16 (TensorFl [(None, 16, 11, 928) 0           tf_op_layer_concat_15[0][0]      
                                                                 conv3_11_x2[0][0]                
__________________________________________________________________________________________________
conv3_12_x1_bn (BatchNormalizat (None, 16, 11, 928)  3712        tf_op_layer_concat_16[0][0]      
__________________________________________________________________________________________________
relu3_12_x1 (Activation)        (None, 16, 11, 928)  0           conv3_12_x1_bn[0][0]             
__________________________________________________________________________________________________
conv3_12_x1 (Conv2D)            (None, 16, 11, 256)  237568      relu3_12_x1[0][0]                
__________________________________________________________________________________________________
conv3_12_x2_bn (BatchNormalizat (None, 16, 11, 256)  1024        conv3_12_x1[0][0]                
__________________________________________________________________________________________________
relu3_12_x2 (Activation)        (None, 16, 11, 256)  0           conv3_12_x2_bn[0][0]             
__________________________________________________________________________________________________
conv3_12_x2_zeropadding (ZeroPa (None, 18, 13, 256)  0           relu3_12_x2[0][0]                
__________________________________________________________________________________________________
conv3_12_x2 (Conv2D)            (None, 16, 11, 64)   147456      conv3_12_x2_zeropadding[0][0]    
__________________________________________________________________________________________________
tf_op_layer_concat_17 (TensorFl [(None, 16, 11, 992) 0           tf_op_layer_concat_16[0][0]      
                                                                 conv3_12_x2[0][0]                
__________________________________________________________________________________________________
global_average_pooling_2d_se3_d (None, 992)          0           tf_op_layer_concat_17[0][0]      
__________________________________________________________________________________________________
dense_relu_se3_dense (Dense)    (None, 62)           61566       global_average_pooling_2d_se3_den
__________________________________________________________________________________________________
relu_se3_dense (Activation)     (None, 62)           0           dense_relu_se3_dense[0][0]       
__________________________________________________________________________________________________
dense_sigmoid_se3_dense (Dense) (None, 992)          62496       relu_se3_dense[0][0]             
__________________________________________________________________________________________________
sigmoid_se3_dense (Activation)  (None, 992)          0           dense_sigmoid_se3_dense[0][0]    
__________________________________________________________________________________________________
tf_op_layer_ExpandDims_4 (Tenso [(None, 1, 992)]     0           sigmoid_se3_dense[0][0]          
__________________________________________________________________________________________________
tf_op_layer_ExpandDims_5 (Tenso [(None, 1, 1, 992)]  0           tf_op_layer_ExpandDims_4[0][0]   
__________________________________________________________________________________________________
tf_op_layer_mul_2 (TensorFlowOp [(None, 16, 11, 992) 0           tf_op_layer_concat_17[0][0]      
                                                                 tf_op_layer_ExpandDims_5[0][0]   
__________________________________________________________________________________________________
conv_final_blk_bn (BatchNormali (None, 16, 11, 992)  3968        tf_op_layer_mul_2[0][0]          
__________________________________________________________________________________________________
relu_final_blk (Activation)     (None, 16, 11, 992)  0           conv_final_blk_bn[0][0]          
__________________________________________________________________________________________________
pool_final (GlobalAveragePoolin (None, 992)          0           relu_final_blk[0][0]             
__________________________________________________________________________________________________
fc6 (Dense)                     (None, 20)           19860       pool_final[0][0]                 
__________________________________________________________________________________________________
prob (Activation)               (None, 20)           0           fc6[0][0]                        
==================================================================================================
Total params: 5,110,972
Trainable params: 5,082,236
Non-trainable params: 28,736
__________________________________________________________________________________________________
Model: "model"
__________________________________________________________________________________________________
Layer (type)                    Output Shape         Param #     Connected to                     
==================================================================================================
data (InputLayer)               [(None, 132, 92, 3)] 0                                            
__________________________________________________________________________________________________
conv1_zeropadding (ZeroPadding2 (None, 138, 98, 3)   0           data[0][0]                       
__________________________________________________________________________________________________
conv1 (Conv2D)                  (None, 66, 46, 64)   9408        conv1_zeropadding[0][0]          
__________________________________________________________________________________________________
conv1_bn (BatchNormalization)   (None, 66, 46, 64)   256         conv1[0][0]                      
__________________________________________________________________________________________________
relu1 (Activation)              (None, 66, 46, 64)   0           conv1_bn[0][0]                   
__________________________________________________________________________________________________
pool1_zeropadding (ZeroPadding2 (None, 68, 48, 64)   0           relu1[0][0]                      
__________________________________________________________________________________________________
pool1 (MaxPooling2D)            (None, 33, 23, 64)   0           pool1_zeropadding[0][0]          
__________________________________________________________________________________________________
conv2_1_x1_bn (BatchNormalizati (None, 33, 23, 64)   256         pool1[0][0]                      
__________________________________________________________________________________________________
relu2_1_x1 (Activation)         (None, 33, 23, 64)   0           conv2_1_x1_bn[0][0]              
__________________________________________________________________________________________________
conv2_1_x1 (Conv2D)             (None, 33, 23, 256)  16384       relu2_1_x1[0][0]                 
__________________________________________________________________________________________________
conv2_1_x2_bn (BatchNormalizati (None, 33, 23, 256)  1024        conv2_1_x1[0][0]                 
__________________________________________________________________________________________________
relu2_1_x2 (Activation)         (None, 33, 23, 256)  0           conv2_1_x2_bn[0][0]              
__________________________________________________________________________________________________
conv2_1_x2_zeropadding (ZeroPad (None, 35, 25, 256)  0           relu2_1_x2[0][0]                 
__________________________________________________________________________________________________
conv2_1_x2 (Conv2D)             (None, 33, 23, 64)   147456      conv2_1_x2_zeropadding[0][0]     
__________________________________________________________________________________________________
tf_op_layer_concat (TensorFlowO [(None, 33, 23, 128) 0           pool1[0][0]                      
                                                                 conv2_1_x2[0][0]                 
__________________________________________________________________________________________________
conv2_2_x1_bn (BatchNormalizati (None, 33, 23, 128)  512         tf_op_layer_concat[0][0]         
__________________________________________________________________________________________________
relu2_2_x1 (Activation)         (None, 33, 23, 128)  0           conv2_2_x1_bn[0][0]              
__________________________________________________________________________________________________
conv2_2_x1 (Conv2D)             (None, 33, 23, 256)  32768       relu2_2_x1[0][0]                 
__________________________________________________________________________________________________
conv2_2_x2_bn (BatchNormalizati (None, 33, 23, 256)  1024        conv2_2_x1[0][0]                 
__________________________________________________________________________________________________
relu2_2_x2 (Activation)         (None, 33, 23, 256)  0           conv2_2_x2_bn[0][0]              
__________________________________________________________________________________________________
conv2_2_x2_zeropadding (ZeroPad (None, 35, 25, 256)  0           relu2_2_x2[0][0]                 
__________________________________________________________________________________________________
conv2_2_x2 (Conv2D)             (None, 33, 23, 64)   147456      conv2_2_x2_zeropadding[0][0]     
__________________________________________________________________________________________________
tf_op_layer_concat_1 (TensorFlo [(None, 33, 23, 192) 0           tf_op_layer_concat[0][0]         
                                                                 conv2_2_x2[0][0]                 
__________________________________________________________________________________________________
conv2_3_x1_bn (BatchNormalizati (None, 33, 23, 192)  768         tf_op_layer_concat_1[0][0]       
__________________________________________________________________________________________________
relu2_3_x1 (Activation)         (None, 33, 23, 192)  0           conv2_3_x1_bn[0][0]              
__________________________________________________________________________________________________
conv2_3_x1 (Conv2D)             (None, 33, 23, 256)  49152       relu2_3_x1[0][0]                 
__________________________________________________________________________________________________
conv2_3_x2_bn (BatchNormalizati (None, 33, 23, 256)  1024        conv2_3_x1[0][0]                 
__________________________________________________________________________________________________
relu2_3_x2 (Activation)         (None, 33, 23, 256)  0           conv2_3_x2_bn[0][0]              
__________________________________________________________________________________________________
conv2_3_x2_zeropadding (ZeroPad (None, 35, 25, 256)  0           relu2_3_x2[0][0]                 
__________________________________________________________________________________________________
conv2_3_x2 (Conv2D)             (None, 33, 23, 64)   147456      conv2_3_x2_zeropadding[0][0]     
__________________________________________________________________________________________________
tf_op_layer_concat_2 (TensorFlo [(None, 33, 23, 256) 0           tf_op_layer_concat_1[0][0]       
                                                                 conv2_3_x2[0][0]                 
__________________________________________________________________________________________________
conv2_4_x1_bn (BatchNormalizati (None, 33, 23, 256)  1024        tf_op_layer_concat_2[0][0]       
__________________________________________________________________________________________________
relu2_4_x1 (Activation)         (None, 33, 23, 256)  0           conv2_4_x1_bn[0][0]              
__________________________________________________________________________________________________
conv2_4_x1 (Conv2D)             (None, 33, 23, 256)  65536       relu2_4_x1[0][0]                 
__________________________________________________________________________________________________
conv2_4_x2_bn (BatchNormalizati (None, 33, 23, 256)  1024        conv2_4_x1[0][0]                 
__________________________________________________________________________________________________
relu2_4_x2 (Activation)         (None, 33, 23, 256)  0           conv2_4_x2_bn[0][0]              
__________________________________________________________________________________________________
conv2_4_x2_zeropadding (ZeroPad (None, 35, 25, 256)  0           relu2_4_x2[0][0]                 
__________________________________________________________________________________________________
conv2_4_x2 (Conv2D)             (None, 33, 23, 64)   147456      conv2_4_x2_zeropadding[0][0]     
__________________________________________________________________________________________________
tf_op_layer_concat_3 (TensorFlo [(None, 33, 23, 320) 0           tf_op_layer_concat_2[0][0]       
                                                                 conv2_4_x2[0][0]                 
__________________________________________________________________________________________________
conv2_5_x1_bn (BatchNormalizati (None, 33, 23, 320)  1280        tf_op_layer_concat_3[0][0]       
__________________________________________________________________________________________________
relu2_5_x1 (Activation)         (None, 33, 23, 320)  0           conv2_5_x1_bn[0][0]              
__________________________________________________________________________________________________
conv2_5_x1 (Conv2D)             (None, 33, 23, 256)  81920       relu2_5_x1[0][0]                 
__________________________________________________________________________________________________
conv2_5_x2_bn (BatchNormalizati (None, 33, 23, 256)  1024        conv2_5_x1[0][0]                 
__________________________________________________________________________________________________
relu2_5_x2 (Activation)         (None, 33, 23, 256)  0           conv2_5_x2_bn[0][0]              
__________________________________________________________________________________________________
conv2_5_x2_zeropadding (ZeroPad (None, 35, 25, 256)  0           relu2_5_x2[0][0]                 
__________________________________________________________________________________________________
conv2_5_x2 (Conv2D)             (None, 33, 23, 64)   147456      conv2_5_x2_zeropadding[0][0]     
__________________________________________________________________________________________________
tf_op_layer_concat_4 (TensorFlo [(None, 33, 23, 384) 0           tf_op_layer_concat_3[0][0]       
                                                                 conv2_5_x2[0][0]                 
__________________________________________________________________________________________________
conv2_6_x1_bn (BatchNormalizati (None, 33, 23, 384)  1536        tf_op_layer_concat_4[0][0]       
__________________________________________________________________________________________________
relu2_6_x1 (Activation)         (None, 33, 23, 384)  0           conv2_6_x1_bn[0][0]              
__________________________________________________________________________________________________
conv2_6_x1 (Conv2D)             (None, 33, 23, 256)  98304       relu2_6_x1[0][0]                 
__________________________________________________________________________________________________
conv2_6_x2_bn (BatchNormalizati (None, 33, 23, 256)  1024        conv2_6_x1[0][0]                 
__________________________________________________________________________________________________
relu2_6_x2 (Activation)         (None, 33, 23, 256)  0           conv2_6_x2_bn[0][0]              
__________________________________________________________________________________________________
conv2_6_x2_zeropadding (ZeroPad (None, 35, 25, 256)  0           relu2_6_x2[0][0]                 
__________________________________________________________________________________________________
conv2_6_x2 (Conv2D)             (None, 33, 23, 64)   147456      conv2_6_x2_zeropadding[0][0]     
__________________________________________________________________________________________________
tf_op_layer_concat_5 (TensorFlo [(None, 33, 23, 448) 0           tf_op_layer_concat_4[0][0]       
                                                                 conv2_6_x2[0][0]                 
__________________________________________________________________________________________________
global_average_pooling_2d_se2_d (None, 448)          0           tf_op_layer_concat_5[0][0]       
__________________________________________________________________________________________________
dense_relu_se2_dense (Dense)    (None, 28)           12572       global_average_pooling_2d_se2_den
__________________________________________________________________________________________________
relu_se2_dense (Activation)     (None, 28)           0           dense_relu_se2_dense[0][0]       
__________________________________________________________________________________________________
dense_sigmoid_se2_dense (Dense) (None, 448)          12992       relu_se2_dense[0][0]             
__________________________________________________________________________________________________
sigmoid_se2_dense (Activation)  (None, 448)          0           dense_sigmoid_se2_dense[0][0]    
__________________________________________________________________________________________________
tf_op_layer_ExpandDims (TensorF [(None, 1, 448)]     0           sigmoid_se2_dense[0][0]          
__________________________________________________________________________________________________
tf_op_layer_ExpandDims_1 (Tenso [(None, 1, 1, 448)]  0           tf_op_layer_ExpandDims[0][0]     
__________________________________________________________________________________________________
tf_op_layer_mul (TensorFlowOpLa [(None, 33, 23, 448) 0           tf_op_layer_concat_5[0][0]       
                                                                 tf_op_layer_ExpandDims_1[0][0]   
__________________________________________________________________________________________________
conv2_blk_bn (BatchNormalizatio (None, 33, 23, 448)  1792        tf_op_layer_mul[0][0]            
__________________________________________________________________________________________________
relu2_blk (Activation)          (None, 33, 23, 448)  0           conv2_blk_bn[0][0]               
__________________________________________________________________________________________________
conv2_blk (Conv2D)              (None, 33, 23, 224)  100352      relu2_blk[0][0]                  
__________________________________________________________________________________________________
pool2 (AveragePooling2D)        (None, 16, 11, 224)  0           conv2_blk[0][0]                  
__________________________________________________________________________________________________
global_average_pooling_2d_se2_t (None, 224)          0           pool2[0][0]                      
__________________________________________________________________________________________________
dense_relu_se2_transition (Dens (None, 14)           3150        global_average_pooling_2d_se2_tra
__________________________________________________________________________________________________
relu_se2_transition (Activation (None, 14)           0           dense_relu_se2_transition[0][0]  
__________________________________________________________________________________________________
dense_sigmoid_se2_transition (D (None, 224)          3360        relu_se2_transition[0][0]        
__________________________________________________________________________________________________
sigmoid_se2_transition (Activat (None, 224)          0           dense_sigmoid_se2_transition[0][0
__________________________________________________________________________________________________
tf_op_layer_ExpandDims_2 (Tenso [(None, 1, 224)]     0           sigmoid_se2_transition[0][0]     
__________________________________________________________________________________________________
tf_op_layer_ExpandDims_3 (Tenso [(None, 1, 1, 224)]  0           tf_op_layer_ExpandDims_2[0][0]   
__________________________________________________________________________________________________
tf_op_layer_mul_1 (TensorFlowOp [(None, 16, 11, 224) 0           pool2[0][0]                      
                                                                 tf_op_layer_ExpandDims_3[0][0]   
__________________________________________________________________________________________________
conv3_1_x1_bn (BatchNormalizati (None, 16, 11, 224)  896         tf_op_layer_mul_1[0][0]          
__________________________________________________________________________________________________
relu3_1_x1 (Activation)         (None, 16, 11, 224)  0           conv3_1_x1_bn[0][0]              
__________________________________________________________________________________________________
conv3_1_x1 (Conv2D)             (None, 16, 11, 256)  57344       relu3_1_x1[0][0]                 
__________________________________________________________________________________________________
conv3_1_x2_bn (BatchNormalizati (None, 16, 11, 256)  1024        conv3_1_x1[0][0]                 
__________________________________________________________________________________________________
relu3_1_x2 (Activation)         (None, 16, 11, 256)  0           conv3_1_x2_bn[0][0]              
__________________________________________________________________________________________________
conv3_1_x2_zeropadding (ZeroPad (None, 18, 13, 256)  0           relu3_1_x2[0][0]                 
__________________________________________________________________________________________________
conv3_1_x2 (Conv2D)             (None, 16, 11, 64)   147456      conv3_1_x2_zeropadding[0][0]     
__________________________________________________________________________________________________
tf_op_layer_concat_6 (TensorFlo [(None, 16, 11, 288) 0           tf_op_layer_mul_1[0][0]          
                                                                 conv3_1_x2[0][0]                 
__________________________________________________________________________________________________
conv3_2_x1_bn (BatchNormalizati (None, 16, 11, 288)  1152        tf_op_layer_concat_6[0][0]       
__________________________________________________________________________________________________
relu3_2_x1 (Activation)         (None, 16, 11, 288)  0           conv3_2_x1_bn[0][0]              
__________________________________________________________________________________________________
conv3_2_x1 (Conv2D)             (None, 16, 11, 256)  73728       relu3_2_x1[0][0]                 
__________________________________________________________________________________________________
conv3_2_x2_bn (BatchNormalizati (None, 16, 11, 256)  1024        conv3_2_x1[0][0]                 
__________________________________________________________________________________________________
relu3_2_x2 (Activation)         (None, 16, 11, 256)  0           conv3_2_x2_bn[0][0]              
__________________________________________________________________________________________________
conv3_2_x2_zeropadding (ZeroPad (None, 18, 13, 256)  0           relu3_2_x2[0][0]                 
__________________________________________________________________________________________________
conv3_2_x2 (Conv2D)             (None, 16, 11, 64)   147456      conv3_2_x2_zeropadding[0][0]     
__________________________________________________________________________________________________
tf_op_layer_concat_7 (TensorFlo [(None, 16, 11, 352) 0           tf_op_layer_concat_6[0][0]       
                                                                 conv3_2_x2[0][0]                 
__________________________________________________________________________________________________
conv3_3_x1_bn (BatchNormalizati (None, 16, 11, 352)  1408        tf_op_layer_concat_7[0][0]       
__________________________________________________________________________________________________
relu3_3_x1 (Activation)         (None, 16, 11, 352)  0           conv3_3_x1_bn[0][0]              
__________________________________________________________________________________________________
conv3_3_x1 (Conv2D)             (None, 16, 11, 256)  90112       relu3_3_x1[0][0]                 
__________________________________________________________________________________________________
conv3_3_x2_bn (BatchNormalizati (None, 16, 11, 256)  1024        conv3_3_x1[0][0]                 
__________________________________________________________________________________________________
relu3_3_x2 (Activation)         (None, 16, 11, 256)  0           conv3_3_x2_bn[0][0]              
__________________________________________________________________________________________________
conv3_3_x2_zeropadding (ZeroPad (None, 18, 13, 256)  0           relu3_3_x2[0][0]                 
__________________________________________________________________________________________________
conv3_3_x2 (Conv2D)             (None, 16, 11, 64)   147456      conv3_3_x2_zeropadding[0][0]     
__________________________________________________________________________________________________
tf_op_layer_concat_8 (TensorFlo [(None, 16, 11, 416) 0           tf_op_layer_concat_7[0][0]       
                                                                 conv3_3_x2[0][0]                 
__________________________________________________________________________________________________
conv3_4_x1_bn (BatchNormalizati (None, 16, 11, 416)  1664        tf_op_layer_concat_8[0][0]       
__________________________________________________________________________________________________
relu3_4_x1 (Activation)         (None, 16, 11, 416)  0           conv3_4_x1_bn[0][0]              
__________________________________________________________________________________________________
conv3_4_x1 (Conv2D)             (None, 16, 11, 256)  106496      relu3_4_x1[0][0]                 
__________________________________________________________________________________________________
conv3_4_x2_bn (BatchNormalizati (None, 16, 11, 256)  1024        conv3_4_x1[0][0]                 
__________________________________________________________________________________________________
relu3_4_x2 (Activation)         (None, 16, 11, 256)  0           conv3_4_x2_bn[0][0]              
__________________________________________________________________________________________________
conv3_4_x2_zeropadding (ZeroPad (None, 18, 13, 256)  0           relu3_4_x2[0][0]                 
__________________________________________________________________________________________________
conv3_4_x2 (Conv2D)             (None, 16, 11, 64)   147456      conv3_4_x2_zeropadding[0][0]     
__________________________________________________________________________________________________
tf_op_layer_concat_9 (TensorFlo [(None, 16, 11, 480) 0           tf_op_layer_concat_8[0][0]       
                                                                 conv3_4_x2[0][0]                 
__________________________________________________________________________________________________
conv3_5_x1_bn (BatchNormalizati (None, 16, 11, 480)  1920        tf_op_layer_concat_9[0][0]       
__________________________________________________________________________________________________
relu3_5_x1 (Activation)         (None, 16, 11, 480)  0           conv3_5_x1_bn[0][0]              
__________________________________________________________________________________________________
conv3_5_x1 (Conv2D)             (None, 16, 11, 256)  122880      relu3_5_x1[0][0]                 
__________________________________________________________________________________________________
conv3_5_x2_bn (BatchNormalizati (None, 16, 11, 256)  1024        conv3_5_x1[0][0]                 
__________________________________________________________________________________________________
relu3_5_x2 (Activation)         (None, 16, 11, 256)  0           conv3_5_x2_bn[0][0]              
__________________________________________________________________________________________________
conv3_5_x2_zeropadding (ZeroPad (None, 18, 13, 256)  0           relu3_5_x2[0][0]                 
__________________________________________________________________________________________________
conv3_5_x2 (Conv2D)             (None, 16, 11, 64)   147456      conv3_5_x2_zeropadding[0][0]     
__________________________________________________________________________________________________
tf_op_layer_concat_10 (TensorFl [(None, 16, 11, 544) 0           tf_op_layer_concat_9[0][0]       
                                                                 conv3_5_x2[0][0]                 
__________________________________________________________________________________________________
conv3_6_x1_bn (BatchNormalizati (None, 16, 11, 544)  2176        tf_op_layer_concat_10[0][0]      
__________________________________________________________________________________________________
relu3_6_x1 (Activation)         (None, 16, 11, 544)  0           conv3_6_x1_bn[0][0]              
__________________________________________________________________________________________________
conv3_6_x1 (Conv2D)             (None, 16, 11, 256)  139264      relu3_6_x1[0][0]                 
__________________________________________________________________________________________________
conv3_6_x2_bn (BatchNormalizati (None, 16, 11, 256)  1024        conv3_6_x1[0][0]                 
__________________________________________________________________________________________________
relu3_6_x2 (Activation)         (None, 16, 11, 256)  0           conv3_6_x2_bn[0][0]              
__________________________________________________________________________________________________
conv3_6_x2_zeropadding (ZeroPad (None, 18, 13, 256)  0           relu3_6_x2[0][0]                 
__________________________________________________________________________________________________
conv3_6_x2 (Conv2D)             (None, 16, 11, 64)   147456      conv3_6_x2_zeropadding[0][0]     
__________________________________________________________________________________________________
tf_op_layer_concat_11 (TensorFl [(None, 16, 11, 608) 0           tf_op_layer_concat_10[0][0]      
                                                                 conv3_6_x2[0][0]                 
__________________________________________________________________________________________________
conv3_7_x1_bn (BatchNormalizati (None, 16, 11, 608)  2432        tf_op_layer_concat_11[0][0]      
__________________________________________________________________________________________________
relu3_7_x1 (Activation)         (None, 16, 11, 608)  0           conv3_7_x1_bn[0][0]              
__________________________________________________________________________________________________
conv3_7_x1 (Conv2D)             (None, 16, 11, 256)  155648      relu3_7_x1[0][0]                 
__________________________________________________________________________________________________
conv3_7_x2_bn (BatchNormalizati (None, 16, 11, 256)  1024        conv3_7_x1[0][0]                 
__________________________________________________________________________________________________
relu3_7_x2 (Activation)         (None, 16, 11, 256)  0           conv3_7_x2_bn[0][0]              
__________________________________________________________________________________________________
conv3_7_x2_zeropadding (ZeroPad (None, 18, 13, 256)  0           relu3_7_x2[0][0]                 
__________________________________________________________________________________________________
conv3_7_x2 (Conv2D)             (None, 16, 11, 64)   147456      conv3_7_x2_zeropadding[0][0]     
__________________________________________________________________________________________________
tf_op_layer_concat_12 (TensorFl [(None, 16, 11, 672) 0           tf_op_layer_concat_11[0][0]      
                                                                 conv3_7_x2[0][0]                 
__________________________________________________________________________________________________
conv3_8_x1_bn (BatchNormalizati (None, 16, 11, 672)  2688        tf_op_layer_concat_12[0][0]      
__________________________________________________________________________________________________
relu3_8_x1 (Activation)         (None, 16, 11, 672)  0           conv3_8_x1_bn[0][0]              
__________________________________________________________________________________________________
conv3_8_x1 (Conv2D)             (None, 16, 11, 256)  172032      relu3_8_x1[0][0]                 
__________________________________________________________________________________________________
conv3_8_x2_bn (BatchNormalizati (None, 16, 11, 256)  1024        conv3_8_x1[0][0]                 
__________________________________________________________________________________________________
relu3_8_x2 (Activation)         (None, 16, 11, 256)  0           conv3_8_x2_bn[0][0]              
__________________________________________________________________________________________________
conv3_8_x2_zeropadding (ZeroPad (None, 18, 13, 256)  0           relu3_8_x2[0][0]                 
__________________________________________________________________________________________________
conv3_8_x2 (Conv2D)             (None, 16, 11, 64)   147456      conv3_8_x2_zeropadding[0][0]     
__________________________________________________________________________________________________
tf_op_layer_concat_13 (TensorFl [(None, 16, 11, 736) 0           tf_op_layer_concat_12[0][0]      
                                                                 conv3_8_x2[0][0]                 
__________________________________________________________________________________________________
conv3_9_x1_bn (BatchNormalizati (None, 16, 11, 736)  2944        tf_op_layer_concat_13[0][0]      
__________________________________________________________________________________________________
relu3_9_x1 (Activation)         (None, 16, 11, 736)  0           conv3_9_x1_bn[0][0]              
__________________________________________________________________________________________________
conv3_9_x1 (Conv2D)             (None, 16, 11, 256)  188416      relu3_9_x1[0][0]                 
__________________________________________________________________________________________________
conv3_9_x2_bn (BatchNormalizati (None, 16, 11, 256)  1024        conv3_9_x1[0][0]                 
__________________________________________________________________________________________________
relu3_9_x2 (Activation)         (None, 16, 11, 256)  0           conv3_9_x2_bn[0][0]              
__________________________________________________________________________________________________
conv3_9_x2_zeropadding (ZeroPad (None, 18, 13, 256)  0           relu3_9_x2[0][0]                 
__________________________________________________________________________________________________
conv3_9_x2 (Conv2D)             (None, 16, 11, 64)   147456      conv3_9_x2_zeropadding[0][0]     
__________________________________________________________________________________________________
tf_op_layer_concat_14 (TensorFl [(None, 16, 11, 800) 0           tf_op_layer_concat_13[0][0]      
                                                                 conv3_9_x2[0][0]                 
__________________________________________________________________________________________________
conv3_10_x1_bn (BatchNormalizat (None, 16, 11, 800)  3200        tf_op_layer_concat_14[0][0]      
__________________________________________________________________________________________________
relu3_10_x1 (Activation)        (None, 16, 11, 800)  0           conv3_10_x1_bn[0][0]             
__________________________________________________________________________________________________
conv3_10_x1 (Conv2D)            (None, 16, 11, 256)  204800      relu3_10_x1[0][0]                
__________________________________________________________________________________________________
conv3_10_x2_bn (BatchNormalizat (None, 16, 11, 256)  1024        conv3_10_x1[0][0]                
__________________________________________________________________________________________________
relu3_10_x2 (Activation)        (None, 16, 11, 256)  0           conv3_10_x2_bn[0][0]             
__________________________________________________________________________________________________
conv3_10_x2_zeropadding (ZeroPa (None, 18, 13, 256)  0           relu3_10_x2[0][0]                
__________________________________________________________________________________________________
conv3_10_x2 (Conv2D)            (None, 16, 11, 64)   147456      conv3_10_x2_zeropadding[0][0]    
__________________________________________________________________________________________________
tf_op_layer_concat_15 (TensorFl [(None, 16, 11, 864) 0           tf_op_layer_concat_14[0][0]      
                                                                 conv3_10_x2[0][0]                
__________________________________________________________________________________________________
conv3_11_x1_bn (BatchNormalizat (None, 16, 11, 864)  3456        tf_op_layer_concat_15[0][0]      
…
__________________________________________________________________________________________________
conv3_8_x1 (Conv2D)             (None, 16, 11, 256)  172032      relu3_8_x1[0][0]                 
__________________________________________________________________________________________________
conv3_8_x2_bn (BatchNormalizati (None, 16, 11, 256)  1024        conv3_8_x1[0][0]                 
__________________________________________________________________________________________________
relu3_8_x2 (Activation)         (None, 16, 11, 256)  0           conv3_8_x2_bn[0][0]              
__________________________________________________________________________________________________
conv3_8_x2_zeropadding (ZeroPad (None, 18, 13, 256)  0           relu3_8_x2[0][0]                 
__________________________________________________________________________________________________
conv3_8_x2 (Conv2D)             (None, 16, 11, 64)   147456      conv3_8_x2_zeropadding[0][0]     
__________________________________________________________________________________________________
tf_op_layer_concat_13 (TensorFl [(None, 16, 11, 736) 0           tf_op_layer_concat_12[0][0]      
                                                                 conv3_8_x2[0][0]                 
__________________________________________________________________________________________________
conv3_9_x1_bn (BatchNormalizati (None, 16, 11, 736)  2944        tf_op_layer_concat_13[0][0]      
__________________________________________________________________________________________________
relu3_9_x1 (Activation)         (None, 16, 11, 736)  0           conv3_9_x1_bn[0][0]              
__________________________________________________________________________________________________
conv3_9_x1 (Conv2D)             (None, 16, 11, 256)  188416      relu3_9_x1[0][0]                 
__________________________________________________________________________________________________
conv3_9_x2_bn (BatchNormalizati (None, 16, 11, 256)  1024        conv3_9_x1[0][0]                 
__________________________________________________________________________________________________
relu3_9_x2 (Activation)         (None, 16, 11, 256)  0           conv3_9_x2_bn[0][0]              
__________________________________________________________________________________________________
conv3_9_x2_zeropadding (ZeroPad (None, 18, 13, 256)  0           relu3_9_x2[0][0]                 
__________________________________________________________________________________________________
conv3_9_x2 (Conv2D)             (None, 16, 11, 64)   147456      conv3_9_x2_zeropadding[0][0]     
__________________________________________________________________________________________________
tf_op_layer_concat_14 (TensorFl [(None, 16, 11, 800) 0           tf_op_layer_concat_13[0][0]      
                                                                 conv3_9_x2[0][0]                 
__________________________________________________________________________________________________
conv3_10_x1_bn (BatchNormalizat (None, 16, 11, 800)  3200        tf_op_layer_concat_14[0][0]      
__________________________________________________________________________________________________
relu3_10_x1 (Activation)        (None, 16, 11, 800)  0           conv3_10_x1_bn[0][0]             
__________________________________________________________________________________________________
conv3_10_x1 (Conv2D)            (None, 16, 11, 256)  204800      relu3_10_x1[0][0]                
__________________________________________________________________________________________________
conv3_10_x2_bn (BatchNormalizat (None, 16, 11, 256)  1024        conv3_10_x1[0][0]                
__________________________________________________________________________________________________
relu3_10_x2 (Activation)        (None, 16, 11, 256)  0           conv3_10_x2_bn[0][0]             
__________________________________________________________________________________________________
conv3_10_x2_zeropadding (ZeroPa (None, 18, 13, 256)  0           relu3_10_x2[0][0]                
__________________________________________________________________________________________________
conv3_10_x2 (Conv2D)            (None, 16, 11, 64)   147456      conv3_10_x2_zeropadding[0][0]    
__________________________________________________________________________________________________
tf_op_layer_concat_15 (TensorFl [(None, 16, 11, 864) 0           tf_op_layer_concat_14[0][0]      
                                                                 conv3_10_x2[0][0]                
__________________________________________________________________________________________________
conv3_11_x1_bn (BatchNormalizat (None, 16, 11, 864)  3456        tf_op_layer_concat_15[0][0]      
__________________________________________________________________________________________________
relu3_11_x1 (Activation)        (None, 16, 11, 864)  0           conv3_11_x1_bn[0][0]             
__________________________________________________________________________________________________
conv3_11_x1 (Conv2D)            (None, 16, 11, 256)  221184      relu3_11_x1[0][0]                
__________________________________________________________________________________________________
conv3_11_x2_bn (BatchNormalizat (None, 16, 11, 256)  1024        conv3_11_x1[0][0]                
__________________________________________________________________________________________________
relu3_11_x2 (Activation)        (None, 16, 11, 256)  0           conv3_11_x2_bn[0][0]             
__________________________________________________________________________________________________
conv3_11_x2_zeropadding (ZeroPa (None, 18, 13, 256)  0           relu3_11_x2[0][0]                
__________________________________________________________________________________________________
conv3_11_x2 (Conv2D)            (None, 16, 11, 64)   147456      conv3_11_x2_zeropadding[0][0]    
__________________________________________________________________________________________________
tf_op_layer_concat_16 (TensorFl [(None, 16, 11, 928) 0           tf_op_layer_concat_15[0][0]      
                                                                 conv3_11_x2[0][0]                
__________________________________________________________________________________________________
conv3_12_x1_bn (BatchNormalizat (None, 16, 11, 928)  3712        tf_op_layer_concat_16[0][0]      
__________________________________________________________________________________________________
relu3_12_x1 (Activation)        (None, 16, 11, 928)  0           conv3_12_x1_bn[0][0]             
__________________________________________________________________________________________________
conv3_12_x1 (Conv2D)            (None, 16, 11, 256)  237568      relu3_12_x1[0][0]                
__________________________________________________________________________________________________
conv3_12_x2_bn (BatchNormalizat (None, 16, 11, 256)  1024        conv3_12_x1[0][0]                
__________________________________________________________________________________________________
relu3_12_x2 (Activation)        (None, 16, 11, 256)  0           conv3_12_x2_bn[0][0]             
__________________________________________________________________________________________________
conv3_12_x2_zeropadding (ZeroPa (None, 18, 13, 256)  0           relu3_12_x2[0][0]                
__________________________________________________________________________________________________
conv3_12_x2 (Conv2D)            (None, 16, 11, 64)   147456      conv3_12_x2_zeropadding[0][0]    
__________________________________________________________________________________________________
tf_op_layer_concat_17 (TensorFl [(None, 16, 11, 992) 0           tf_op_layer_concat_16[0][0]      
                                                                 conv3_12_x2[0][0]                
__________________________________________________________________________________________________
global_average_pooling_2d_se3_d (None, 992)          0           tf_op_layer_concat_17[0][0]      
__________________________________________________________________________________________________
dense_relu_se3_dense (Dense)    (None, 62)           61566       global_average_pooling_2d_se3_den
__________________________________________________________________________________________________
relu_se3_dense (Activation)     (None, 62)           0           dense_relu_se3_dense[0][0]       
__________________________________________________________________________________________________
dense_sigmoid_se3_dense (Dense) (None, 992)          62496       relu_se3_dense[0][0]             
__________________________________________________________________________________________________
sigmoid_se3_dense (Activation)  (None, 992)          0           dense_sigmoid_se3_dense[0][0]    
__________________________________________________________________________________________________
tf_op_layer_ExpandDims_4 (Tenso [(None, 1, 992)]     0           sigmoid_se3_dense[0][0]          
__________________________________________________________________________________________________
tf_op_layer_ExpandDims_5 (Tenso [(None, 1, 1, 992)]  0           tf_op_layer_ExpandDims_4[0][0]   
__________________________________________________________________________________________________
tf_op_layer_mul_2 (TensorFlowOp [(None, 16, 11, 992) 0           tf_op_layer_concat_17[0][0]      
                                                                 tf_op_layer_ExpandDims_5[0][0]   
__________________________________________________________________________________________________
conv_final_blk_bn (BatchNormali (None, 16, 11, 992)  3968        tf_op_layer_mul_2[0][0]          
__________________________________________________________________________________________________
relu_final_blk (Activation)     (None, 16, 11, 992)  0           conv_final_blk_bn[0][0]          
__________________________________________________________________________________________________
pool_final (GlobalAveragePoolin (None, 992)          0           relu_final_blk[0][0]             
__________________________________________________________________________________________________
fc6 (Dense)                     (None, 20)           19860       pool_final[0][0]                 
__________________________________________________________________________________________________
prob (Activation)               (None, 20)           0           fc6[0][0]                        
==================================================================================================
Total params: 5,110,972
Trainable params: 5,082,236
Non-trainable params: 28,736
__________________________________________________________________________________________________
Model: "model"
__________________________________________________________________________________________________
Layer (type)                    Output Shape         Param #     Connected to                     
==================================================================================================
data (InputLayer)               [(None, 132, 92, 3)] 0                                            
__________________________________________________________________________________________________
conv1_zeropadding (ZeroPadding2 (None, 138, 98, 3)   0           data[0][0]                       
__________________________________________________________________________________________________
conv1 (Conv2D)                  (None, 66, 46, 64)   9408        conv1_zeropadding[0][0]          
__________________________________________________________________________________________________
conv1_bn (BatchNormalization)   (None, 66, 46, 64)   256         conv1[0][0]                      
__________________________________________________________________________________________________
relu1 (Activation)              (None, 66, 46, 64)   0           conv1_bn[0][0]                   
__________________________________________________________________________________________________
pool1_zeropadding (ZeroPadding2 (None, 68, 48, 64)   0           relu1[0][0]                      
__________________________________________________________________________________________________
pool1 (MaxPooling2D)            (None, 33, 23, 64)   0           pool1_zeropadding[0][0]          
__________________________________________________________________________________________________
conv2_1_x1_bn (BatchNormalizati (None, 33, 23, 64)   256         pool1[0][0]                      
__________________________________________________________________________________________________
relu2_1_x1 (Activation)         (None, 33, 23, 64)   0           conv2_1_x1_bn[0][0]              
__________________________________________________________________________________________________
conv2_1_x1 (Conv2D)             (None, 33, 23, 256)  16384       relu2_1_x1[0][0]                 
__________________________________________________________________________________________________
conv2_1_x2_bn (BatchNormalizati (None, 33, 23, 256)  1024        conv2_1_x1[0][0]                 
__________________________________________________________________________________________________
relu2_1_x2 (Activation)         (None, 33, 23, 256)  0           conv2_1_x2_bn[0][0]              
__________________________________________________________________________________________________
conv2_1_x2_zeropadding (ZeroPad (None, 35, 25, 256)  0           relu2_1_x2[0][0]                 
__________________________________________________________________________________________________
conv2_1_x2 (Conv2D)             (None, 33, 23, 64)   147456      conv2_1_x2_zeropadding[0][0]     
__________________________________________________________________________________________________
tf_op_layer_concat (TensorFlowO [(None, 33, 23, 128) 0           pool1[0][0]                      
                                                                 conv2_1_x2[0][0]                 
__________________________________________________________________________________________________
conv2_2_x1_bn (BatchNormalizati (None, 33, 23, 128)  512         tf_op_layer_concat[0][0]         
__________________________________________________________________________________________________
relu2_2_x1 (Activation)         (None, 33, 23, 128)  0           conv2_2_x1_bn[0][0]              
__________________________________________________________________________________________________
conv2_2_x1 (Conv2D)             (None, 33, 23, 256)  32768       relu2_2_x1[0][0]                 
__________________________________________________________________________________________________
conv2_2_x2_bn (BatchNormalizati (None, 33, 23, 256)  1024        conv2_2_x1[0][0]                 
__________________________________________________________________________________________________
relu2_2_x2 (Activation)         (None, 33, 23, 256)  0           conv2_2_x2_bn[0][0]              
__________________________________________________________________________________________________
conv2_2_x2_zeropadding (ZeroPad (None, 35, 25, 256)  0           relu2_2_x2[0][0]                 
__________________________________________________________________________________________________
conv2_2_x2 (Conv2D)             (None, 33, 23, 64)   147456      conv2_2_x2_zeropadding[0][0]     
__________________________________________________________________________________________________
tf_op_layer_concat_1 (TensorFlo [(None, 33, 23, 192) 0           tf_op_layer_concat[0][0]         
                                                                 conv2_2_x2[0][0]                 
__________________________________________________________________________________________________
conv2_3_x1_bn (BatchNormalizati (None, 33, 23, 192)  768         tf_op_layer_concat_1[0][0]       
__________________________________________________________________________________________________
relu2_3_x1 (Activation)         (None, 33, 23, 192)  0           conv2_3_x1_bn[0][0]              
__________________________________________________________________________________________________
conv2_3_x1 (Conv2D)             (None, 33, 23, 256)  49152       relu2_3_x1[0][0]                 
__________________________________________________________________________________________________
conv2_3_x2_bn (BatchNormalizati (None, 33, 23, 256)  1024        conv2_3_x1[0][0]                 
__________________________________________________________________________________________________
relu2_3_x2 (Activation)         (None, 33, 23, 256)  0           conv2_3_x2_bn[0][0]              
__________________________________________________________________________________________________
conv2_3_x2_zeropadding (ZeroPad (None, 35, 25, 256)  0           relu2_3_x2[0][0]                 
__________________________________________________________________________________________________
conv2_3_x2 (Conv2D)             (None, 33, 23, 64)   147456      conv2_3_x2_zeropadding[0][0]     
__________________________________________________________________________________________________
tf_op_layer_concat_2 (TensorFlo [(None, 33, 23, 256) 0           tf_op_layer_concat_1[0][0]       
                                                                 conv2_3_x2[0][0]                 
__________________________________________________________________________________________________
conv2_4_x1_bn (BatchNormalizati (None, 33, 23, 256)  1024        tf_op_layer_concat_2[0][0]       
__________________________________________________________________________________________________
relu2_4_x1 (Activation)         (None, 33, 23, 256)  0           conv2_4_x1_bn[0][0]              
__________________________________________________________________________________________________
conv2_4_x1 (Conv2D)             (None, 33, 23, 256)  65536       relu2_4_x1[0][0]                 
__________________________________________________________________________________________________
conv2_4_x2_bn (BatchNormalizati (None, 33, 23, 256)  1024        conv2_4_x1[0][0]                 
__________________________________________________________________________________________________
relu2_4_x2 (Activation)         (None, 33, 23, 256)  0           conv2_4_x2_bn[0][0]              
__________________________________________________________________________________________________
conv2_4_x2_zeropadding (ZeroPad (None, 35, 25, 256)  0           relu2_4_x2[0][0]                 
__________________________________________________________________________________________________
conv2_4_x2 (Conv2D)             (None, 33, 23, 64)   147456      conv2_4_x2_zeropadding[0][0]     
__________________________________________________________________________________________________
tf_op_layer_concat_3 (TensorFlo [(None, 33, 23, 320) 0           tf_op_layer_concat_2[0][0]       
                                                                 conv2_4_x2[0][0]                 
__________________________________________________________________________________________________
conv2_5_x1_bn (BatchNormalizati (None, 33, 23, 320)  1280        tf_op_layer_concat_3[0][0]       
__________________________________________________________________________________________________
relu2_5_x1 (Activation)         (None, 33, 23, 320)  0           conv2_5_x1_bn[0][0]              
__________________________________________________________________________________________________
conv2_5_x1 (Conv2D)             (None, 33, 23, 256)  81920       relu2_5_x1[0][0]                 
__________________________________________________________________________________________________
conv2_5_x2_bn (BatchNormalizati (None, 33, 23, 256)  1024        conv2_5_x1[0][0]                 
__________________________________________________________________________________________________
relu2_5_x2 (Activation)         (None, 33, 23, 256)  0           conv2_5_x2_bn[0][0]              
__________________________________________________________________________________________________
conv2_5_x2_zeropadding (ZeroPad (None, 35, 25, 256)  0           relu2_5_x2[0][0]                 
__________________________________________________________________________________________________
conv2_5_x2 (Conv2D)             (None, 33, 23, 64)   147456      conv2_5_x2_zeropadding[0][0]     
__________________________________________________________________________________________________
tf_op_layer_concat_4 (TensorFlo [(None, 33, 23, 384) 0           tf_op_layer_concat_3[0][0]       
                                                                 conv2_5_x2[0][0]                 
__________________________________________________________________________________________________
conv2_6_x1_bn (BatchNormalizati (None, 33, 23, 384)  1536        tf_op_layer_concat_4[0][0]       
__________________________________________________________________________________________________
relu2_6_x1 (Activation)         (None, 33, 23, 384)  0           conv2_6_x1_bn[0][0]              
__________________________________________________________________________________________________
conv2_6_x1 (Conv2D)             (None, 33, 23, 256)  98304       relu2_6_x1[0][0]                 
__________________________________________________________________________________________________
conv2_6_x2_bn (BatchNormalizati (None, 33, 23, 256)  1024        conv2_6_x1[0][0]                 
__________________________________________________________________________________________________
relu2_6_x2 (Activation)         (None, 33, 23, 256)  0           conv2_6_x2_bn[0][0]              
__________________________________________________________________________________________________
conv2_6_x2_zeropadding (ZeroPad (None, 35, 25, 256)  0           relu2_6_x2[0][0]                 
__________________________________________________________________________________________________
conv2_6_x2 (Conv2D)             (None, 33, 23, 64)   147456      conv2_6_x2_zeropadding[0][0]     
__________________________________________________________________________________________________
tf_op_layer_concat_5 (TensorFlo [(None, 33, 23, 448) 0           tf_op_layer_concat_4[0][0]       
                                                                 conv2_6_x2[0][0]                 
__________________________________________________________________________________________________
global_average_pooling_2d_se2_d (None, 448)          0           tf_op_layer_concat_5[0][0]       
__________________________________________________________________________________________________
dense_relu_se2_dense (Dense)    (None, 28)           12572       global_average_pooling_2d_se2_den
__________________________________________________________________________________________________
relu_se2_dense (Activation)     (None, 28)           0           dense_relu_se2_dense[0][0]       
__________________________________________________________________________________________________
dense_sigmoid_se2_dense (Dense) (None, 448)          12992       relu_se2_dense[0][0]             
__________________________________________________________________________________________________
sigmoid_se2_dense (Activation)  (None, 448)          0           dense_sigmoid_se2_dense[0][0]    
__________________________________________________________________________________________________
tf_op_layer_ExpandDims (TensorF [(None, 1, 448)]     0           sigmoid_se2_dense[0][0]          
__________________________________________________________________________________________________
tf_op_layer_ExpandDims_1 (Tenso [(None, 1, 1, 448)]  0           tf_op_layer_ExpandDims[0][0]     
__________________________________________________________________________________________________
tf_op_layer_mul (TensorFlowOpLa [(None, 33, 23, 448) 0           tf_op_layer_concat_5[0][0]       
                                                                 tf_op_layer_ExpandDims_1[0][0]   
__________________________________________________________________________________________________
conv2_blk_bn (BatchNormalizatio (None, 33, 23, 448)  1792        tf_op_layer_mul[0][0]            
__________________________________________________________________________________________________
relu2_blk (Activation)          (None, 33, 23, 448)  0           conv2_blk_bn[0][0]               
__________________________________________________________________________________________________
conv2_blk (Conv2D)              (None, 33, 23, 224)  100352      relu2_blk[0][0]                  
__________________________________________________________________________________________________
pool2 (AveragePooling2D)        (None, 16, 11, 224)  0           conv2_blk[0][0]                  
__________________________________________________________________________________________________
global_average_pooling_2d_se2_t (None, 224)          0           pool2[0][0]                      
__________________________________________________________________________________________________
dense_relu_se2_transition (Dens (None, 14)           3150        global_average_pooling_2d_se2_tra
__________________________________________________________________________________________________
relu_se2_transition (Activation (None, 14)           0           dense_relu_se2_transition[0][0]  
__________________________________________________________________________________________________
dense_sigmoid_se2_transition (D (None, 224)          3360        relu_se2_transition[0][0]        
__________________________________________________________________________________________________
sigmoid_se2_transition (Activat (None, 224)          0           dense_sigmoid_se2_transition[0][0
__________________________________________________________________________________________________
tf_op_layer_ExpandDims_2 (Tenso [(None, 1, 224)]     0           sigmoid_se2_transition[0][0]     
__________________________________________________________________________________________________
tf_op_layer_ExpandDims_3 (Tenso [(None, 1, 1, 224)]  0           tf_op_layer_ExpandDims_2[0][0]   
__________________________________________________________________________________________________
tf_op_layer_mul_1 (TensorFlowOp [(None, 16, 11, 224) 0           pool2[0][0]                      
                                                                 tf_op_layer_ExpandDims_3[0][0]   
__________________________________________________________________________________________________
conv3_1_x1_bn (BatchNormalizati (None, 16, 11, 224)  896         tf_op_layer_mul_1[0][0]          
__________________________________________________________________________________________________
relu3_1_x1 (Activation)         (None, 16, 11, 224)  0           conv3_1_x1_bn[0][0]              
__________________________________________________________________________________________________
conv3_1_x1 (Conv2D)             (None, 16, 11, 256)  57344       relu3_1_x1[0][0]                 
__________________________________________________________________________________________________
conv3_1_x2_bn (BatchNormalizati (None, 16, 11, 256)  1024        conv3_1_x1[0][0]                 
__________________________________________________________________________________________________
relu3_1_x2 (Activation)         (None, 16, 11, 256)  0           conv3_1_x2_bn[0][0]              
__________________________________________________________________________________________________
conv3_1_x2_zeropadding (ZeroPad (None, 18, 13, 256)  0           relu3_1_x2[0][0]                 
__________________________________________________________________________________________________
conv3_1_x2 (Conv2D)             (None, 16, 11, 64)   147456      conv3_1_x2_zeropadding[0][0]     
__________________________________________________________________________________________________
tf_op_layer_concat_6 (TensorFlo [(None, 16, 11, 288) 0           tf_op_layer_mul_1[0][0]          
                                                                 conv3_1_x2[0][0]                 
__________________________________________________________________________________________________
conv3_2_x1_bn (BatchNormalizati (None, 16, 11, 288)  1152        tf_op_layer_concat_6[0][0]       
__________________________________________________________________________________________________
relu3_2_x1 (Activation)         (None, 16, 11, 288)  0           conv3_2_x1_bn[0][0]              
__________________________________________________________________________________________________
conv3_2_x1 (Conv2D)             (None, 16, 11, 256)  73728       relu3_2_x1[0][0]                 
__________________________________________________________________________________________________
conv3_2_x2_bn (BatchNormalizati (None, 16, 11, 256)  1024        conv3_2_x1[0][0]                 
__________________________________________________________________________________________________
relu3_2_x2 (Activation)         (None, 16, 11, 256)  0           conv3_2_x2_bn[0][0]              
__________________________________________________________________________________________________
conv3_2_x2_zeropadding (ZeroPad (None, 18, 13, 256)  0           relu3_2_x2[0][0]                 
__________________________________________________________________________________________________
conv3_2_x2 (Conv2D)             (None, 16, 11, 64)   147456      conv3_2_x2_zeropadding[0][0]     
__________________________________________________________________________________________________
tf_op_layer_concat_7 (TensorFlo [(None, 16, 11, 352) 0           tf_op_layer_concat_6[0][0]       
                                                                 conv3_2_x2[0][0]                 
__________________________________________________________________________________________________
conv3_3_x1_bn (BatchNormalizati (None, 16, 11, 352)  1408        tf_op_layer_concat_7[0][0]       
__________________________________________________________________________________________________
relu3_3_x1 (Activation)         (None, 16, 11, 352)  0           conv3_3_x1_bn[0][0]              
__________________________________________________________________________________________________
conv3_3_x1 (Conv2D)             (None, 16, 11, 256)  90112       relu3_3_x1[0][0]                 
__________________________________________________________________________________________________
conv3_3_x2_bn (BatchNormalizati (None, 16, 11, 256)  1024        conv3_3_x1[0][0]                 
__________________________________________________________________________________________________
relu3_3_x2 (Activation)         (None, 16, 11, 256)  0           conv3_3_x2_bn[0][0]              
__________________________________________________________________________________________________
conv3_3_x2_zeropadding (ZeroPad (None, 18, 13, 256)  0           relu3_3_x2[0][0]                 
__________________________________________________________________________________________________
conv3_3_x2 (Conv2D)             (None, 16, 11, 64)   147456      conv3_3_x2_zeropadding[0][0]     
__________________________________________________________________________________________________
tf_op_layer_concat_8 (TensorFlo [(None, 16, 11, 416) 0           tf_op_layer_concat_7[0][0]       
                                                                 conv3_3_x2[0][0]                 
__________________________________________________________________________________________________
conv3_4_x1_bn (BatchNormalizati (None, 16, 11, 416)  1664        tf_op_layer_concat_8[0][0]       
__________________________________________________________________________________________________
relu3_4_x1 (Activation)         (None, 16, 11, 416)  0           conv3_4_x1_bn[0][0]              
__________________________________________________________________________________________________
conv3_4_x1 (Conv2D)             (None, 16, 11, 256)  106496      relu3_4_x1[0][0]                 
__________________________________________________________________________________________________
conv3_4_x2_bn (BatchNormalizati (None, 16, 11, 256)  1024        conv3_4_x1[0][0]                 
__________________________________________________________________________________________________
relu3_4_x2 (Activation)         (None, 16, 11, 256)  0           conv3_4_x2_bn[0][0]              
__________________________________________________________________________________________________
conv3_4_x2_zeropadding (ZeroPad (None, 18, 13, 256)  0           relu3_4_x2[0][0]                 
__________________________________________________________________________________________________
conv3_4_x2 (Conv2D)             (None, 16, 11, 64)   147456      conv3_4_x2_zeropadding[0][0]     
__________________________________________________________________________________________________
tf_op_layer_concat_9 (TensorFlo [(None, 16, 11, 480) 0           tf_op_layer_concat_8[0][0]       
                                                                 conv3_4_x2[0][0]                 
__________________________________________________________________________________________________
conv3_5_x1_bn (BatchNormalizati (None, 16, 11, 480)  1920        tf_op_layer_concat_9[0][0]       
__________________________________________________________________________________________________
relu3_5_x1 (Activation)         (None, 16, 11, 480)  0           conv3_5_x1_bn[0][0]              
__________________________________________________________________________________________________
conv3_5_x1 (Conv2D)             (None, 16, 11, 256)  122880      relu3_5_x1[0][0]                 
__________________________________________________________________________________________________
conv3_5_x2_bn (BatchNormalizati (None, 16, 11, 256)  1024        conv3_5_x1[0][0]                 
__________________________________________________________________________________________________
relu3_5_x2 (Activation)         (None, 16, 11, 256)  0           conv3_5_x2_bn[0][0]              
__________________________________________________________________________________________________
conv3_5_x2_zeropadding (ZeroPad (None, 18, 13, 256)  0           relu3_5_x2[0][0]                 
__________________________________________________________________________________________________
conv3_5_x2 (Conv2D)             (None, 16, 11, 64)   147456      conv3_5_x2_zeropadding[0][0]     
__________________________________________________________________________________________________
tf_op_layer_concat_10 (TensorFl [(None, 16, 11, 544) 0           tf_op_layer_concat_9[0][0]       
                                                                 conv3_5_x2[0][0]                 
__________________________________________________________________________________________________
conv3_6_x1_bn (BatchNormalizati (None, 16, 11, 544)  2176        tf_op_layer_concat_10[0][0]      
__________________________________________________________________________________________________
relu3_6_x1 (Activation)         (None, 16, 11, 544)  0           conv3_6_x1_bn[0][0]              
__________________________________________________________________________________________________
conv3_6_x1 (Conv2D)             (None, 16, 11, 256)  139264      relu3_6_x1[0][0]                 
__________________________________________________________________________________________________
conv3_6_x2_bn (BatchNormalizati (None, 16, 11, 256)  1024        conv3_6_x1[0][0]                 
__________________________________________________________________________________________________
relu3_6_x2 (Activation)         (None, 16, 11, 256)  0           conv3_6_x2_bn[0][0]              
__________________________________________________________________________________________________
conv3_6_x2_zeropadding (ZeroPad (None, 18, 13, 256)  0           relu3_6_x2[0][0]                 
__________________________________________________________________________________________________
conv3_6_x2 (Conv2D)             (None, 16, 11, 64)   147456      conv3_6_x2_zeropadding[0][0]     
__________________________________________________________________________________________________
tf_op_layer_concat_11 (TensorFl [(None, 16, 11, 608) 0           tf_op_layer_concat_10[0][0]      
                                                                 conv3_6_x2[0][0]                 
__________________________________________________________________________________________________
conv3_7_x1_bn (BatchNormalizati (None, 16, 11, 608)  2432        tf_op_layer_concat_11[0][0]      
__________________________________________________________________________________________________
relu3_7_x1 (Activation)         (None, 16, 11, 608)  0           conv3_7_x1_bn[0][0]              
__________________________________________________________________________________________________
conv3_7_x1 (Conv2D)             (None, 16, 11, 256)  155648      relu3_7_x1[0][0]                 
__________________________________________________________________________________________________
conv3_7_x2_bn (BatchNormalizati (None, 16, 11, 256)  1024        conv3_7_x1[0][0]                 
__________________________________________________________________________________________________
relu3_7_x2 (Activation)         (None, 16, 11, 256)  0           conv3_7_x2_bn[0][0]              
__________________________________________________________________________________________________
conv3_7_x2_zeropadding (ZeroPad (None, 18, 13, 256)  0           relu3_7_x2[0][0]                 
__________________________________________________________________________________________________
conv3_7_x2 (Conv2D)             (None, 16, 11, 64)   147456      conv3_7_x2_zeropadding[0][0]     
__________________________________________________________________________________________________
tf_op_layer_concat_12 (TensorFl [(None, 16, 11, 672) 0           tf_op_layer_concat_11[0][0]      
                                                                 conv3_7_x2[0][0]                 
__________________________________________________________________________________________________
conv3_8_x1_bn (BatchNormalizati (None, 16, 11, 672)  2688        tf_op_layer_concat_12[0][0]      
__________________________________________________________________________________________________
relu3_8_x1 (Activation)         (None, 16, 11, 672)  0           conv3_8_x1_bn[0][0]              
__________________________________________________________________________________________________
conv3_8_x1 (Conv2D)             (None, 16, 11, 256)  172032      relu3_8_x1[0][0]                 
__________________________________________________________________________________________________
conv3_8_x2_bn (BatchNormalizati (None, 16, 11, 256)  1024        conv3_8_x1[0][0]                 
__________________________________________________________________________________________________
relu3_8_x2 (Activation)         (None, 16, 11, 256)  0           conv3_8_x2_bn[0][0]              
__________________________________________________________________________________________________
conv3_8_x2_zeropadding (ZeroPad (None, 18, 13, 256)  0           relu3_8_x2[0][0]                 
__________________________________________________________________________________________________
conv3_8_x2 (Conv2D)             (None, 16, 11, 64)   147456      conv3_8_x2_zeropadding[0][0]     
__________________________________________________________________________________________________
tf_op_layer_concat_13 (TensorFl [(None, 16, 11, 736) 0           tf_op_layer_concat_12[0][0]      
                                                                 conv3_8_x2[0][0]                 
__________________________________________________________________________________________________
conv3_9_x1_bn (BatchNormalizati (None, 16, 11, 736)  2944        tf_op_layer_concat_13[0][0]      
__________________________________________________________________________________________________
relu3_9_x1 (Activation)         (None, 16, 11, 736)  0           conv3_9_x1_bn[0][0]              
__________________________________________________________________________________________________
conv3_9_x1 (Conv2D)             (None, 16, 11, 256)  188416      relu3_9_x1[0][0]                 
__________________________________________________________________________________________________
conv3_9_x2_bn (BatchNormalizati (None, 16, 11, 256)  1024        conv3_9_x1[0][0]                 
__________________________________________________________________________________________________
relu3_9_x2 (Activation)         (None, 16, 11, 256)  0           conv3_9_x2_bn[0][0]              
__________________________________________________________________________________________________
conv3_9_x2_zeropadding (ZeroPad (None, 18, 13, 256)  0           relu3_9_x2[0][0]                 
__________________________________________________________________________________________________
conv3_9_x2 (Conv2D)             (None, 16, 11, 64)   147456      conv3_9_x2_zeropadding[0][0]     
__________________________________________________________________________________________________
tf_op_layer_concat_14 (TensorFl [(None, 16, 11, 800) 0           tf_op_layer_concat_13[0][0]      
                                                                 conv3_9_x2[0][0]                 
__________________________________________________________________________________________________
conv3_10_x1_bn (BatchNormalizat (None, 16, 11, 800)  3200        tf_op_layer_concat_14[0][0]      
__________________________________________________________________________________________________
relu3_10_x1 (Activation)        (None, 16, 11, 800)  0           conv3_10_x1_bn[0][0]             
__________________________________________________________________________________________________
conv3_10_x1 (Conv2D)            (None, 16, 11, 256)  204800      relu3_10_x1[0][0]                
__________________________________________________________________________________________________
conv3_10_x2_bn (BatchNormalizat (None, 16, 11, 256)  1024        conv3_10_x1[0][0]                
__________________________________________________________________________________________________
relu3_10_x2 (Activation)        (None, 16, 11, 256)  0           conv3_10_x2_bn[0][0]             
__________________________________________________________________________________________________
conv3_10_x2_zeropadding (ZeroPa (None, 18, 13, 256)  0           relu3_10_x2[0][0]                
__________________________________________________________________________________________________
conv3_10_x2 (Conv2D)            (None, 16, 11, 64)   147456      conv3_10_x2_zeropadding[0][0]    
__________________________________________________________________________________________________
tf_op_layer_concat_15 (TensorFl [(None, 16, 11, 864) 0           tf_op_layer_concat_14[0][0]      
                                                                 conv3_10_x2[0][0]                
__________________________________________________________________________________________________
conv3_11_x1_bn (BatchNormalizat (None, 16, 11, 864)  3456        tf_op_layer_concat_15[0][0]      
__________________________________________________________________________________________________
relu3_11_x1 (Activation)        (None, 16, 11, 864)  0           conv3_11_x1_bn[0][0]             
__________________________________________________________________________________________________
conv3_11_x1 (Conv2D)            (None, 16, 11, 256)  221184      relu3_11_x1[0][0]                
__________________________________________________________________________________________________
conv3_11_x2_bn (BatchNormalizat (None, 16, 11, 256)  1024        conv3_11_x1[0][0]                
__________________________________________________________________________________________________
relu3_11_x2 (Activation)        (None, 16, 11, 256)  0           conv3_11_x2_bn[0][0]             
__________________________________________________________________________________________________
conv3_11_x2_zeropadding (ZeroPa (None, 18, 13, 256)  0           relu3_11_x2[0][0]                
__________________________________________________________________________________________________
conv3_11_x2 (Conv2D)            (None, 16, 11, 64)   147456      conv3_11_x2_zeropadding[0][0]    
__________________________________________________________________________________________________
tf_op_layer_concat_16 (TensorFl [(None, 16, 11, 928) 0           tf_op_layer_concat_15[0][0]      
                                                                 conv3_11_x2[0][0]                
__________________________________________________________________________________________________
conv3_12_x1_bn (BatchNormalizat (None, 16, 11, 928)  3712        tf_op_layer_concat_16[0][0]      
__________________________________________________________________________________________________
relu3_12_x1 (Activation)        (None, 16, 11, 928)  0           conv3_12_x1_bn[0][0]             
__________________________________________________________________________________________________
conv3_12_x1 (Conv2D)            (None, 16, 11, 256)  237568      relu3_12_x1[0][0]                
__________________________________________________________________________________________________
conv3_12_x2_bn (BatchNormalizat (None, 16, 11, 256)  1024        conv3_12_x1[0][0]                
__________________________________________________________________________________________________
relu3_12_x2 (Activation)        (None, 16, 11, 256)  0           conv3_12_x2_bn[0][0]             
__________________________________________________________________________________________________
conv3_12_x2_zeropadding (ZeroPa (None, 18, 13, 256)  0           relu3_12_x2[0][0]                
__________________________________________________________________________________________________
conv3_12_x2 (Conv2D)            (None, 16, 11, 64)   147456      conv3_12_x2_zeropadding[0][0]    
__________________________________________________________________________________________________
tf_op_layer_concat_17 (TensorFl [(None, 16, 11, 992) 0           tf_op_layer_concat_16[0][0]      
                                                                 conv3_12_x2[0][0]                
__________________________________________________________________________________________________
global_average_pooling_2d_se3_d (None, 992)          0           tf_op_layer_concat_17[0][0]      
__________________________________________________________________________________________________
dense_relu_se3_dense (Dense)    (None, 62)           61566       global_average_pooling_2d_se3_den
__________________________________________________________________________________________________
relu_se3_dense (Activation)     (None, 62)           0           dense_relu_se3_dense[0][0]       
__________________________________________________________________________________________________
dense_sigmoid_se3_dense (Dense) (None, 992)          62496       relu_se3_dense[0][0]             
__________________________________________________________________________________________________
sigmoid_se3_dense (Activation)  (None, 992)          0           dense_sigmoid_se3_dense[0][0]    
__________________________________________________________________________________________________
tf_op_layer_ExpandDims_4 (Tenso [(None, 1, 992)]     0           sigmoid_se3_dense[0][0]          
__________________________________________________________________________________________________
tf_op_layer_ExpandDims_5 (Tenso [(None, 1, 1, 992)]  0           tf_op_layer_ExpandDims_4[0][0]   
__________________________________________________________________________________________________
tf_op_layer_mul_2 (TensorFlowOp [(None, 16, 11, 992) 0           tf_op_layer_concat_17[0][0]      
                                                                 tf_op_layer_ExpandDims_5[0][0]   
__________________________________________________________________________________________________
conv_final_blk_bn (BatchNormali (None, 16, 11, 992)  3968        tf_op_layer_mul_2[0][0]          
__________________________________________________________________________________________________
relu_final_blk (Activation)     (None, 16, 11, 992)  0           conv_final_blk_bn[0][0]          
__________________________________________________________________________________________________
pool_final (GlobalAveragePoolin (None, 992)          0           relu_final_blk[0][0]             
__________________________________________________________________________________________________
fc6 (Dense)                     (None, 20)           19860       pool_final[0][0]                 
__________________________________________________________________________________________________
prob (Activation)               (None, 20)           0           fc6[0][0]                        
==================================================================================================
Total params: 5,110,972
Trainable params: 5,082,236
Non-trainable params: 28,736
__________________________________________________________________________________________________


DenseNet tests
Executing test case with config at ./tests/densenet/config_rwth.conf
…
